Study/bongjin/KoreaSignLanguageRecogModel-main/transfer/slRecogModel.tflite (tflite, 192768 bytes, 8 tensors)

unknown_1 f4 [256]
000000 57 ce da ba ec 9e 83 3b f5 97 32 3a 68 e3 a8 bb
       -0.0016693574 0.0040167477 0.00068128045 -0.005154062
000010 4b 4c 78 3b c7 a7 22 3c dd 41 83 3c 0f 99 24 3c
       0.003788727 0.009927697 0.016022617 0.010046258
000020 af 7f 25 bc 4e b6 71 bc 83 b9 59 bb 3a fb fe 3b
       -0.010101243 -0.0147529375 -0.0033222146 0.0077814134
000030 f6 ef c3 bb 14 54 3b bc 66 62 11 3b 66 f7 52 bc
       -0.0059795333 -0.01143362 0.0022183894 -0.012876367
000040 26 50 38 bb f1 3b 3a bb 61 fe d4 32 11 c0 d7 3b
       -0.0028123944 -0.0028417076 2.4795726e-08 0.0065841754
000050 57 37 59 3d c3 97 55 3b b7 b2 d9 bb 4c de 50 bc
       0.05303129 0.0032591678 -0.006643619 -0.012748312
000060 76 41 80 3b cc 74 f0 3a 92 ee 0d bc b9 03 b7 39
       0.0039140536 0.0018345355 -0.008662837 0.00034907254
000070 9f b8 aa 3c c0 9b 5e 3a 03 14 75 bc 98 5a 02 bc
       0.020839987 0.00084918365 -0.014958384 -0.00795617
000080 cf 54 1f bc 89 8e 01 bc d6 e3 98 ba fc b4 9e 3b
       -0.00972481 -0.007907518 -0.001166458 0.0048433524
000090 62 1d b7 b9 06 73 18 3c 37 6b d1 bb ee d9 c9 bb
       -0.00034926372 0.0093047675 -0.006390955 -0.0061600124
0000a0 7e 68 87 3a 3b c3 38 3c d5 d8 89 bb af 54 d8 39
       0.0010330824 0.011277015 -0.0042067566 0.00041261825
0000b0 8d 37 db bb 9c d5 13 bc 20 b0 8b bb ec a3 60 bc
       -0.006689972 -0.009023096 -0.004262939 -0.013710957
0000c0 9d 46 14 bc 04 50 29 3d da 5a 40 3b cc 6c 16 bc
       -0.009050039 0.041336074 0.0029351027 -0.009181213
0000d0 b7 bc 90 28 7c 4f 1d bc e1 f9 f0 bb 82 be 5a bc
       1.6069054e-14 -0.00960147 -0.0073540066 -0.013351085
0000e0 60 e2 37 3c 92 64 35 bc 3f 47 f4 bb 73 be e8 3c
       0.011223406 -0.011071341 -0.0074547823 0.028411126
0000f0 db 0d a7 3c 98 5a d1 3b f0 bc 12 bc d0 75 fd bb
       0.020392349 0.0063889734 -0.008956179 -0.0077349916
000100 60 9b 81 3f 33 da 7b 3f 43 e2 80 3f a8 97 7f 3f
       1.0125542 0.9837982 1.006905 0.99840784
000110 5b 77 7e 3f e8 52 83 3f 37 30 81 3f 23 db 82 3f
       0.9940087 1.0259676 1.0092839 1.0223125
000120 a7 10 82 3f ea 5c 7d 3f e1 5c 80 3f 5b 63 7e 3f
       1.0161332 0.989699 1.0028344 0.99370354
000130 35 51 7b 3f 8a 94 80 3f 75 11 80 3f 5e 7a 7d 3f
       0.9817079 1.004533 1.0005327 0.9901484
000140 31 32 80 3f c5 e3 7b 3f 00 00 80 3f dc 50 80 3f
       1.0015317 0.98394424 1.0 1.0024676
000150 0c 45 84 3f 5d 97 7c 3f ab 1b 7e 3f 3e 9e 7f 3f
       1.0333571 0.9866846 0.9926097 0.99850833
000160 34 41 80 3f 7d 83 7f 3f be a2 7c 3f 9b 21 80 3f
       1.0019898 0.9981001 0.98685825 1.0010256
000170 04 94 7d 3f f6 03 7f 3f 39 03 7e 3f f5 20 7f 3f
       0.9905398 0.9961542 0.9922367 0.99659663
000180 0d f7 7d 3f 7c aa 81 3f f8 8f 80 3f ab f3 81 3f
       0.99205095 1.0130153 1.0043936 1.0152487
000190 26 fd 7f 3f 13 2f 80 3f e0 f8 7e 3f 1b 78 81 3f
       0.9999565 1.0014366 0.99598503 1.0114778
0001a0 8c ee 7d 3f 8a 7a 82 3f 7c 26 81 3f c9 be 7d 3f
       0.9919212 1.0193646 1.008987 0.9911924
0001b0 3f 9c 7d 3f 9e e3 7e 3f ba 63 80 3f 15 5f 7d 3f
       0.9906654 0.99566066 1.0030434 0.9897321
0001c0 95 b5 7e 3f fd d6 85 3f 3a 06 80 3f 02 45 7e 3f
       0.9949582 1.0456234 1.00019 0.9932405
0001d0 00 00 80 3f 73 e7 7f 3f 93 32 7f 3f 3a ae 7d 3f
       1.0 0.9996254 0.99686545 0.99093974
0001e0 92 20 81 3f 16 e5 7e 3f bb b2 80 3f eb 6d 7f 3f
       1.0088065 0.9956831 1.0054544 0.99777097
0001f0 3f 4c 80 3f b3 04 7d 3f 58 0e 80 3f f0 8f 7d 3f
       1.0023268 0.98835295 1.0004377 0.99047756
000200 75 95 65 bb 84 4a dc bb c2 09 9c 38 9c ed c7 bb
       -0.003503171 -0.00672275 7.440477e-05 -0.0061013233
000210 50 b0 f9 3a 4e 70 a8 3c a3 fd 99 bc 92 dc 10 3c
       0.0019049738 0.020561364 -0.018797701 0.008841651
000220 8b 3a 05 bc 06 9a 5d bc 1c 4a f6 bb 86 74 c9 3c
       -0.0081316335 -0.013525492 -0.0075161587 0.024591696
000230 bd 48 90 bc 8a 5d 0a bb 63 68 dd 3b b0 2e 7f bc
       -0.01761281 -0.0021112883 0.0067568286 -0.015575096
000240 8f 3d fd ba 3c 0c 45 bc 24 64 1f 33 ad 55 3f bb
       -0.0019320714 -0.012026843 3.711115e-08 -0.0029195354
000250 a4 72 39 3d 6b b7 76 3b f2 b4 1a 3b 90 38 a3 bb
       0.045275345 0.0037645947 0.0023606387 -0.004981108
000260 cc c8 e6 39 b8 86 40 3b 61 81 2c bc f9 d0 86 bb
       0.00044018624 0.0029377174 -0.010528893 -0.004114267
000270 94 d6 b7 3c da 0a b5 bb 58 38 c4 bb 9b 07 e7 bb
       0.022441186 -0.0055249752 -0.005988162 -0.007050467
000280 86 36 38 bc 18 32 ee bb 73 c5 5c bb 71 4b ba 3b
       -0.011243468 -0.0072691552 -0.0033687025 0.005685263
000290 40 4b 71 ba 52 8a 3c 3b 29 ab 21 bc bc 64 f2 bb
       -0.00092046335 0.0028768969 -0.009867468 -0.0073972624
0002a0 94 7f 67 bc 02 a9 e8 3c 40 bc 45 bb 12 31 50 ba
       -0.014129538 0.028400902 -0.003017202 -0.00079418824
0002b0 06 d7 5a 39 ea 28 54 bc 5f fd 4e ba 09 8d 00 3b
       0.00020870203 -0.012949208 -0.00078960316 0.0019615314
0002c0 0c b4 47 bc f1 b0 3d 3d 30 26 9c 39 b2 f1 17 bc
       -0.012188923 0.046311323 0.0002978309 -0.009273933
0002d0 86 81 65 29 d8 58 df bb 3d 2b 5f 3c cf c1 49 bc
       5.0960558e-14 -0.006816011 0.013621149 -0.012314274
0002e0 6c 6b a6 3c a7 95 33 bc ab 8b 84 bc 39 25 a5 3c
       0.020314895 -0.010960973 -0.01617988 0.02015935
0002f0 92 8b 42 bc c7 0b 80 bb d2 7c 1e bc 9f 55 0a bc
       -0.0118740965 -0.003907654 -0.009673314 -0.008443265
000300 5a fa dc 3b 4a 2b 9f bb d9 86 52 bc e3 69 0b bc
       0.0067437114 -0.0048574554 -0.012849533 -0.008509132
000310 06 9d 21 bb 3d 6a 0d 3d c7 d8 b6 bb 9c 89 cd bb
       -0.0024660244 0.034525145 -0.005580041 -0.006272508
000320 71 a1 68 3b 2a f1 10 bc cf 5e df bb 80 c0 03 3c
       0.0035496617 -0.0088465605 -0.006816722 0.008041501
000330 7f bd b2 bc 80 dc c6 3a 84 01 98 3a 71 18 16 bb
       -0.021818874 0.0015171915 0.0011597131 -0.0022902752
000340 69 43 26 3c d6 92 6f bc 9a de 01 33 fd e1 b3 bb
       0.010147908 -0.014622411 3.0237608e-08 -0.0054895864
000350 58 c6 2f 3d 65 9e 07 ba d1 d2 ec 3b 07 0d d4 bb
       0.042913765 -0.0005173444 0.0072272797 -0.0064712795
000360 28 e2 36 3b b8 41 58 3b 07 cf f7 bb 9e 95 16 3b
       0.0027905796 0.0032998156 -0.0075625214 0.0022977362
000370 27 eb bc 3c 39 9c e9 bb 80 fa 2d bb ea 7c 4a bc
       0.023061348 -0.007129219 -0.0026547015 -0.012358883
000380 e0 92 0e bc ca f3 b9 bc 26 bd 42 bc 4a f0 0f 38
       -0.00870201 -0.022699255 -0.011885917 3.4317643e-05
000390 24 df b6 b9 ea b6 06 bb 0e 0c 37 bb 3a a6 1b 3c
       -0.00034879998 -0.0020555803 -0.002793077 0.009500081
0003a0 a5 2b 85 bc 21 5c 87 3c b6 ba 51 bb 75 b5 8e 3b
       -0.016256163 0.016523423 -0.0032002158 0.0043551275
0003b0 c7 66 5d bc da b0 0c bc 0b 2e 2a bb 23 04 4c ba
       -0.013513274 -0.008587087 -0.0025967385 -0.0007782599
0003c0 21 c4 25 bc 47 27 d7 3c 8e 85 14 bb 40 7f c3 bb
       -0.010117562 0.026263846 -0.0022662613 -0.005966097
0003d0 95 e9 a1 28 e2 3f 36 3c 5f 25 94 3b 52 0e 27 bc
       1.797589e-14 0.011123629 0.0045210565 -0.010196285
0003e0 72 21 ac 3c eb 13 d7 bb 78 ed c6 38 38 fb a7 3a
       0.021012042 -0.0065636537 9.485608e-05 0.0012815958
0003f0 54 cf e6 ba d0 d0 85 bc b3 fd 8b bb 5e fa e5 bb
       -0.0017609396 -0.016334921 -0.0042721867 -0.0070183715

unknown_3 f4 [32]
000000 27 f9 4a bd bc 5d 15 3d 1f 87 aa 3a f2 07 64 3d
       -0.049554016 0.036466345 0.001301024 0.05567164
000010 48 91 97 bc 3d 5c 5d 3d 91 44 9a bc fe 37 5a bc
       -0.018501893 0.054043043 -0.018831523 -0.013319014
000020 fa c8 e9 3b ca 54 25 bd 6a cb cf bc 1c 0b 71 bc
       0.007134554 -0.040364064 -0.02536555 -0.014712121
000030 21 95 3e bd 10 98 ab 3b 9b 5a eb 3c ce ee c3 3c
       -0.04652894 0.005236633 0.028729727 0.023917582
000040 bc 19 8f bc 53 c6 fc bc 18 71 fb bc 85 ae 13 3d
       -0.017468326 -0.030856287 -0.030693576 0.036055107
000050 1d df 10 bd 79 ed 1f bd 37 cd 24 3c c4 8d 14 3c
       -0.035369027 -0.03904483 0.010058693 0.009067003
000060 23 f1 0c bd 36 81 96 3c 11 9c d4 bc a8 16 89 3b
       -0.034409653 0.01837216 -0.025953325 0.004183609
000070 ec 63 81 bc ed bf 0f bd 3b 89 c7 bc a5 83 f5 bb
       -0.015794717 -0.035095144 -0.024357429 -0.0074925

unknown_5 f4 [11]
000000 8f 45 d9 3c ad 5d 9c bc 8c 9c 86 bc 5b e0 8d bc
       0.026522426 -0.019087637 -0.01643207 -0.017318895
000010 cf 27 61 3d a8 e3 fe 3c 6e 03 35 bc f2 1c 03 3d
       0.054969605 0.031114414 -0.011048181 0.032010026
000020 40 5f e3 bc 5e 67 1f bd 55 c4 06 3a
       -0.02775538 -0.038916938 0.000514095

sequential/dense/MatMul;StatefulPartitionedCall/sequential/dense/MatMul f4 [32, 64]
000000 d2 87 21 3e 18 aa c0 bd e7 09 71 3e 72 7b 24 bd
       0.15774468 -0.09407443 0.23538934 -0.04015679
000010 cf c9 2f 3e 23 5f 83 be d4 4c 20 be 62 91 4c 3e
       0.17166828 -0.2565852 -0.15654308 0.19977334
000020 21 20 0e 3e cc b1 c0 bd b5 f5 2d be 6a 02 f1 bd
       0.13879444 -0.09408912 -0.16988261 -0.117680386
000030 23 84 45 3e 5a 72 89 3d 03 4d 5c 3e e6 ef 77 be
       0.19288687 0.06711264 0.21513753 -0.24212608
000040 0c 8e 6c 3e 97 5a 1b bd 00 a0 63 3e ba 53 39 be
       0.23101062 -0.03792819 0.22229004 -0.18098345
000050 95 b8 eb bc 71 b6 17 be 0a c4 1b 3e ae 2f fb 3d
       -0.028774539 -0.1481569 0.15211502 0.122649536
000060 f6 0f 34 bc 53 d8 55 3e 73 33 9c bc a1 3d 9f 3c
       -0.0109901335 0.20883302 -0.019067502 0.019438567
000070 95 d9 1c bc 7d a7 39 3d 4d f7 0d bd 0c c6 7a be
       -0.00957336 0.045325745 -0.034659673 -0.24489611
000080 d4 77 42 3e b9 b3 c9 bd e7 30 39 be 57 74 9d 3c
       0.18991023 -0.098487325 -0.18085061 0.019220514
000090 b4 68 b0 bd 74 38 41 be d3 4a 1d be 46 13 48 3e
       -0.086137205 -0.18869191 -0.15360574 0.19538602
0000a0 e6 fd 4c 3e df cd 13 be 43 db fd bd dc 52 ba bd
       0.2001873 -0.14434002 -0.123953365 -0.090978354
0000b0 e4 14 3c bd f2 a4 43 3e 32 01 33 3e fd aa ad bd
       -0.04591836 0.1910589 0.17480925 -0.08479879
0000c0 e1 d8 50 bd 92 b0 91 bd 9a ec 51 bd 75 9c 1a be
       -0.05098808 -0.07113756 -0.05125103 -0.15098746
0000d0 38 4b 65 be 66 5d 95 bc d1 11 b3 3d ce e7 54 be
       -0.22391975 -0.018233012 0.087436326 -0.20791551
0000e0 1f a5 b0 bd 00 27 ce bd 46 a8 fe 3d cf 6f 9a 3d
       -0.08625244 -0.100660324 0.12434439 0.07540857
0000f0 43 ea 60 be 27 46 5e be e3 b3 36 3e 1c 81 ee 3d
       -0.21964364 -0.21706448 0.17842059 0.116457194
000100 aa d9 25 be d3 54 83 3d 67 59 d9 3d ec 2a 57 be
       -0.16196314 0.06412663 0.10612755 -0.21012467
000110 ae 50 3e 3d 2d 35 3f 3e 97 c6 40 3e 67 c1 86 be
       0.04646366 0.18672629 0.18825756 -0.2631943
000120 77 76 01 bd 1f 9b ee 3d 62 55 3a 3e 13 3f 8d 3e
       -0.031607118 0.11650681 0.18196633 0.27587184
000130 dd e0 7f 3e b0 a3 47 3e 74 46 31 be 52 21 54 bd
       0.24988122 0.19496036 -0.17312032 -0.05178959
000140 b2 f7 08 3e 7d f5 54 be e0 9e 03 be 18 11 21 be
       0.13375738 -0.20796771 -0.12853575 -0.15729177
000150 18 84 c2 3d 17 7a 0e be 02 98 e6 bd af ba 3b be
       0.09497851 -0.13913761 -0.11259462 -0.18332933
000160 78 43 1f be fd 63 52 bc 04 46 28 3e cc d1 b2 bd
       -0.15553081 -0.012841222 0.16432959 -0.08731422
000170 9f 5a 83 3e 08 14 2e bd 7d be 4e be ad a9 6a be
       0.25655076 -0.042499572 -0.20189853 -0.22916289
000180 02 00 42 3e 21 34 9d 3d b7 b3 32 be 92 6b 00 3e
       0.18945315 0.076759584 -0.17451368 0.12541035
000190 34 b9 34 be 4e 21 59 3d 63 88 e8 3d db cf 1d be
       -0.17648774 0.053010277 0.11354139 -0.15411322
0001a0 93 de d1 3d a7 ee 89 3e 23 86 d3 bd 53 cf 85 3d
       0.10247531 0.2693989 -0.10328319 0.065336846
0001b0 8b ab 0f 3e 73 81 86 be 5a 6f 48 3d c2 a1 c3 3c
       0.14030282 -0.26270637 0.048934318 0.023880843
0001c0 17 5d 1b bd 1b ac 20 3e 68 70 53 be 43 7b 26 be
       -0.037930574 0.15690653 -0.20648348 -0.16257958
0001d0 1c 63 6e be a1 c7 19 3e 47 a8 1b bd 1f da 80 3e
       -0.23279995 0.15017559 -0.03800228 0.25166413
0001e0 00 e3 4b 3e 10 8b 68 3b cc 2d 4c 3e 32 9d c9 bd
       0.19910812 0.0035483278 0.19939345 -0.09844436
0001f0 a7 f6 2f 3d 17 09 82 3e 60 4c ec bd 38 6d 86 3d
       0.042959835 0.2539756 -0.11538005 0.065638006
000200 8f b6 3e bd 60 1b db bd 3d 71 77 be e3 0b ef bd
       -0.04656082 -0.10698581 -0.2416429 -0.11672189
000210 ad d0 22 be 55 4e fd 3c 9e b5 0b 3c bf 8f 20 be
       -0.15899916 0.03092114 0.008527188 -0.15679835
000220 52 a8 86 bd 8e 45 1a be ec b8 0f be 82 5b 44 3e
       -0.06575073 -0.15065596 -0.14035386 0.19175532
000230 75 1f 22 be b6 fb 6c be 95 fd 9b bc 22 8b 5a 3e
       -0.15832312 -0.23142895 -0.019041816 0.21342137
000240 6b ab 41 bd e4 18 42 3e 78 f0 ea bd 37 cb d4 bd
       -0.047282618 0.18954808 -0.11471647 -0.10390323
000250 17 65 01 be 55 e8 7a 3e d1 06 17 be 2e 33 c1 3c
       -0.12636219 0.2450269 -0.14748694 0.023583975
000260 66 b0 5d 3e 85 7b 10 be 0b be 20 be ae 27 8a 3d
       0.21649322 -0.14109619 -0.15697496 0.067458495
000270 7a 26 f8 bd ae 43 22 3e 01 7a e5 bd 78 32 20 be
       -0.12116714 0.1584613 -0.11204911 -0.15644252
000280 08 e5 24 3e df 18 6f 3e b5 86 10 be d6 78 23 3e
       0.16102993 0.23349331 -0.14113887 0.15964064
000290 4f 18 0b bd 61 3d 0c be 45 1a 6b 3d 64 ad 1d be
       -0.03395873 -0.13695289 0.0573981 -0.15398175
0002a0 89 44 83 3e 0b 5b 2b be 6c 0a b8 3d a2 33 0f 3e
       0.25638226 -0.16733949 0.08986363 0.1398454
0002b0 b1 33 77 3c ed a8 db bc 48 bf a3 3b 46 1d 57 be
       0.015088008 -0.026813949 0.0049971677 -0.2100726
0002c0 36 65 50 be 3c a7 04 be 30 07 38 be 99 bb 32 be
       -0.20351109 -0.1295442 -0.17971492 -0.17454375
0002d0 14 ea 1d 3e 81 7d ca bd e3 d2 5f 3e 10 3b b4 3d
       0.15421325 -0.09887219 0.2185779 0.08800328
0002e0 98 f4 07 3d 94 8c 26 3e c7 00 9f 3d c9 48 2f be
       0.033192247 0.16264564 0.0776382 -0.17117609
0002f0 78 01 fe bd bb f6 88 bd 5a 0f 19 bb 0e af b9 3d
       -0.12402624 -0.06687685 -0.0023355098 0.09066592
000300 2e 06 12 3e 9f 37 cc 3d 59 9f 58 be c1 89 6a 3e
       0.1426017 0.099715464 -0.21154536 0.22904111
000310 7c e1 95 3c 6d bb b0 bd e4 4a d0 3d 9e a9 16 3d
       0.018295996 -0.08629499 0.10170534 0.036782853
000320 34 fe 1f 3e ca 8c 79 3e 23 92 22 be 1c 63 ad 3d
       0.15624315 0.24370113 -0.15876059 0.08466169
000330 6c 9e 04 3c 11 34 ac bb f3 fd 0f be 0e a0 9d bd
       0.008094411 -0.0052552302 -0.14061718 -0.07696544
000340 32 b0 0f 3e 0e 41 39 3e 98 40 16 be ad 7a fc bb
       0.14032057 0.18091223 -0.14673078 -0.007705054
000350 1f 97 55 3e a9 ee c5 bd f9 44 9a 3d fc 44 91 3d
       0.2085843 -0.096646614 0.07532687 0.07093236
000360 32 11 ac 3d 77 54 cc 3e f0 09 35 be 69 49 12 3d
       0.08401717 0.39908192 -0.17679572 0.03571454
000370 15 3c 46 3e ac 68 d6 3d 6d 84 14 be 33 95 53 3e
       0.19358857 0.10469183 -0.14503641 0.20662384
000380 01 de 42 be 1a 8e fb bd 3f dc 8b bd ec 60 a5 3c
       -0.1903 -0.12282963 -0.06829118 0.020187818
000390 e1 28 3e 3e a3 5b 7b 3e e9 79 84 3e a6 44 2c be
       0.18570282 0.24546675 0.2587426 -0.16823062
0003a0 23 5b 03 be 55 c9 b0 3d 23 5a d9 3d 15 40 d0 bc
       -0.12827735 0.08632151 0.10612895 -0.025421182
0003b0 ed 17 39 3e 9b fb 24 3e f6 4f 30 be 28 31 78 3c
       0.18075533 0.16111605 -0.17218003 0.0151484385
0003c0 b8 46 5c be d0 ae db 3d 7b 40 a7 bd 59 1b 83 be
       -0.21511352 0.10726702 -0.081665955 -0.25606802
0003d0 b8 45 63 3e d4 71 6e 3e 8c 87 a7 bd 81 5d 30 be
       0.22194564 0.2328561 -0.081801504 -0.17223169
0003e0 45 cf 3e be bb 53 53 be d2 cc fc 3d 8c 16 1a be
       -0.18633755 -0.2063741 0.12343754 -0.15047663
0003f0 ff 77 6d 3e ac 2b 8d bd 7d d3 33 bd 84 4b 2e be
       0.23190306 -0.068930954 -0.043902863 -0.17020994

sequential/dense_1/MatMul;StatefulPartitionedCall/sequential/dense_1/MatMul f4 [11, 32]
000000 9d 84 a1 be c9 f2 85 3e e9 d8 05 3e 4d 23 92 bd
       -0.31546488 0.26161793 0.13071026 -0.07135639
000010 ae 78 2c be 7f 20 73 3e bf 10 aa 3e 39 2b 5a 3d
       -0.1684291 0.23742865 0.332159 0.053263877
000020 7a 52 1e 3e 07 55 19 be 01 84 a5 be 47 3a 37 bc
       0.1546115 -0.14973842 -0.32327273 -0.011183328
000030 b0 27 9f be dc 0a 89 be 36 f2 bc 3d 0a dc 8e bc
       -0.31084967 -0.26766098 0.092258856 -0.017438907
000040 fd 7b 20 be db 78 2f 3e ae e7 c0 3e 31 36 75 3d
       -0.15672298 0.17135946 0.37676758 0.059866134
000050 5d 61 07 3e da 48 9b 3e 9a 44 2f 3d 8e 4d 86 be
       0.13220735 0.3032902 0.042790033 -0.26231045
000060 28 c1 04 be dc 1d 9b 3d 4b 4f 94 3e 70 d3 bc 3d
       -0.12964308 0.075740546 0.28966746 0.09220016
000070 f0 98 cc 3b 3e 57 8d 3e 06 d7 26 be 28 89 41 be
       0.0062438175 0.27605623 -0.16292962 -0.18899977
000080 87 c0 21 be ea 3f fb bd 66 8a d1 bd 88 1c c7 be
       -0.157961 -0.1226805 -0.102314755 -0.38888955
000090 2b 62 1f 3e 28 ae 3e 3e e1 a1 f2 3c ca f5 59 3c
       0.15564792 0.18621123 0.029618206 0.01330323
0000a0 1c 8c 85 be ee d2 97 3e 08 45 96 bd 41 19 c3 bd
       -0.26083457 0.29653114 -0.073373854 -0.09526301
0000b0 46 12 81 3e 92 e2 0b be 83 e6 0e 3e cd 7a a7 bd
       0.25209254 -0.13660648 0.1395512 -0.08177719
0000c0 d6 8d 49 3d 3a d4 6e bd e4 51 c0 bd f9 56 4a 3e
       0.04920753 -0.058307864 -0.093906194 0.1975974
0000d0 4b c6 32 3e d6 b2 04 3e 31 45 0f 3c 8d 65 b3 3c
       0.17458455 0.12958845 0.008744524 0.02189901
0000e0 76 11 0c be 55 19 a1 3e b6 b3 a9 3e 44 c1 41 bc
       -0.13678536 0.3146464 0.3314492 -0.011825863
0000f0 30 ff 45 be 42 40 ac 3e 1b af 5b be 6d 7d 6a 3e
       -0.19335628 0.33642775 -0.21453516 0.22899409
000100 0e 6d 45 3e 87 30 36 be 6b 6d 9a 3e ae 83 95 be
       0.19279882 -0.17791949 0.30161604 -0.29202026
000110 7b cb a2 be 97 00 9c 3e 53 59 6b 3e 3d f0 ca 3d
       -0.31795868 0.304692 0.22983293 0.09909103
000120 30 a0 e7 bc 52 2c 27 3e 9c e2 7b 3e d4 38 87 bd
       -0.028274626 0.163255 0.24598163 -0.06602636
000130 fe 47 d4 3d 46 df 54 be 2a 85 5b 3e 55 91 92 be
       0.10365294 -0.20788297 0.21437517 -0.28626505
000140 ca c5 92 3e 26 9e 16 3e 61 cf 2a 3d ad 9e 8b be
       0.28666526 0.14708766 0.04170168 -0.27269498
000150 bc 1b a8 3e 55 b0 82 be cc 30 f4 bb 62 6e 45 3e
       0.3283366 -0.25525156 -0.007452106 0.19280389
000160 4f ca 72 be 06 85 f8 3d e8 f9 85 be ba cd 80 be
       -0.23709987 0.12134747 -0.26167226 -0.25156957
000170 8e dd 58 3d 0d 06 44 3e 47 e5 88 3e 1b a9 8f 3e
       0.052945666 0.19142933 0.26737425 0.28058705
000180 bf 2a 64 3e 56 c8 b6 3e 1c 4d ef 3a 00 18 81 3d
       0.22281931 0.3569972 0.0018257233 0.06303406
000190 9f b4 98 be 05 a3 b4 3c 06 49 2c be 29 0a 87 be
       -0.29825303 0.02205039 -0.16824731 -0.2637494
0001a0 ac 24 f3 bd 56 93 99 3e a2 75 4b 3d ba 4e 6e 3e
       -0.11872229 0.2999522 0.04967273 0.2327222
0001b0 09 11 1b 3e 77 54 90 bd c7 73 55 3d 16 1f a5 be
       0.15143217 -0.070473604 0.052112367 -0.3225028
0001c0 3d ff 92 3e b4 47 4d 3e 09 82 f5 bd 79 68 a2 be
       0.28710356 0.20046884 -0.11987693 -0.3172033
0001d0 5f f6 15 3d 4c af 3c 3e b9 c8 7f 3e 32 37 34 bb
       0.03661191 0.18426245 0.24978913 -0.002749872
0001e0 6b ed 95 3e fc d9 01 be 4a d2 c4 3d 85 e0 8d bd
       0.29282698 -0.1268081 0.09610422 -0.06927589
0001f0 43 de 5c be 11 76 93 3e 83 26 a9 be 58 6a ac bd
       -0.21569161 0.28801015 -0.33037195 -0.08418721
000200 1d c6 8a be b7 2b 17 3e ca ce 62 3e 76 71 6a 3e
       -0.27104273 0.1476277 0.22149196 0.22894844
000210 45 75 4b 3e 97 93 bb be 9c 21 4f 3d 9c ac 0f be
       0.19868954 -0.3663604 0.05056916 -0.14030689
000220 6f 2c 17 3e b0 c6 a0 be 65 bd 66 be 25 ae 8f bd
       0.14763044 -0.31401587 -0.22533186 -0.07015637
000230 0d a3 4f be 24 eb 40 3e 0d 8f 71 be 98 99 35 be
       -0.20277043 0.18839699 -0.23589726 -0.17734373
000240 49 1f cf 3d 5e f7 ac be c9 ea a7 be 88 29 d1 3e
       0.10113389 -0.33782476 -0.32796314 0.40851998
000250 e4 16 2f be 42 cb 95 bc d1 19 88 be d2 c4 b4 3e
       -0.17098576 -0.018285397 -0.26582196 0.35306412
000260 28 99 b0 3e 3c aa 0c 3e 92 b5 56 3e dc 8d 94 be
       0.3449185 0.13736814 0.20967701 -0.2901448
000270 cb 71 4d be 62 2a 99 3d 09 c6 bd 3c 3a 2e 8b be
       -0.2006294 0.07478787 0.02316572 -0.27183706
000280 d2 f6 55 be af 10 82 3e 40 91 82 3e 5b 32 8d 3e
       -0.20894936 0.25403354 0.25501442 0.2757748
000290 f3 9f 9f 3e 3f 45 67 be 77 4d 53 3e e9 75 5c 3d
       0.3117672 -0.22585009 0.20635019 0.053823385
0002a0 7d 8a be 3b 77 80 3f 3e c8 56 81 be a5 3f 99 be
       0.005814849 0.18701349 -0.2526152 -0.2993137
0002b0 df a9 a3 bc 7a 54 cf 3e 33 7b 09 be 83 b0 19 3e
       -0.019978462 0.40494138 -0.13425903 0.1500874
0002c0 8b 56 44 be ca ea 72 be 8a 5f 33 be 3c 52 fa 3c
       -0.19173639 -0.23722377 -0.17516914 0.03055679
0002d0 9d 54 0d 3e f0 90 1b be 9c 85 80 bd 80 4b a5 3e
       0.13801809 -0.15192008 -0.06275484 0.32284164
0002e0 86 21 37 3e 44 bb 2b 3e c7 58 ce 3d 48 19 a0 3e
       0.17883882 0.16770655 0.10075527 0.31269288
0002f0 2e 8f ea bb 7a e4 54 3e ef 75 aa be ed 4a 9f be
       -0.0071581816 0.20790282 -0.332931 -0.3111185
000300 07 13 69 3e 8c f3 65 be 88 83 c4 bd 6d e1 af be
       0.22761165 -0.22456187 -0.095954 -0.34351674
000310 7a 61 87 be e0 4e 90 be 5e 74 ad be 4f 90 a5 3e
       -0.26441556 -0.28185177 -0.33877844 0.3233666
000320 a2 29 98 3e ad 26 4e 3e 48 70 23 be ca 96 9a 3e
       0.29719263 0.20131941 -0.159608 0.30193168
000330 a6 ba 98 be 32 7c 44 3e dc a5 90 3d fe f8 cc bd
       -0.298299 0.19188002 0.07062885 -0.10008429
000340 74 39 b1 be fd c2 a1 3e 51 0b ec 3d af a6 cd 3d
       -0.34614146 0.31594077 0.11525596 0.10041558
000350 95 e0 de 3d 3c eb 99 be b4 78 c0 3d 01 40 03 3e
       0.108826794 -0.30062282 0.09398022 0.12817384
000360 6c e7 ad 3e 19 74 e0 3d 69 a4 22 3d f9 3c 8c 3e
       0.33965623 0.10959644 0.039707575 0.27390268
000370 d4 dc 9e 3e 05 4d 80 bd d1 fe a1 be bd 88 a3 3e
       0.31027853 -0.0626469 -0.31639722 0.3194026
000380 99 18 b6 be e7 3c 10 bd 1a e2 17 be c9 e9 7b 3e
       -0.35565642 -0.03521433 -0.14832345 0.246009
000390 e3 ab 1f be a2 e2 ae 3e 21 5a 5f 3d df e3 4a 3e
       -0.15592913 0.34157282 0.054529313 0.19813488
0003a0 80 1a b7 3e 5c f9 ab bd fa bd a1 3e 60 ab 7c 3c
       0.35762405 -0.08397171 0.31590253 0.015421718
0003b0 45 a9 2f be f3 6c 9c 3e e0 df a5 3e a8 9f 4c 3e
       -0.17154415 0.30551872 0.32397366 0.19982779
0003c0 48 11 04 bd 55 16 24 3d 37 26 3d 3e a9 5c 92 3e
       -0.032243043 0.04006036 0.18471609 0.2858632
0003d0 7b db 9c be 08 26 ef 3d 9f 85 8c bb 7c a3 40 3e
       -0.306362 0.11677176 -0.00428839 0.18812364
0003e0 df e9 b2 be 1c 3b 71 bd 40 5c 32 bb e6 b4 17 bd
       -0.34944054 -0.05889426 -0.002721563 -0.037037753
0003f0 62 63 af bc 9e aa 25 3e f3 7a 00 be f7 67 74 3e
       -0.021409694 0.16178367 -0.12546901 0.23867784

unknown_11 f4 [256]
000000 57 ce da ba ec 9e 83 3b f5 97 32 3a 68 e3 a8 bb
       -0.0016693574 0.0040167477 0.00068128045 -0.005154062
000010 4b 4c 78 3b c7 a7 22 3c dd 41 83 3c 0f 99 24 3c
       0.003788727 0.009927697 0.016022617 0.010046258
000020 af 7f 25 bc 4e b6 71 bc 83 b9 59 bb 3a fb fe 3b
       -0.010101243 -0.0147529375 -0.0033222146 0.0077814134
000030 f6 ef c3 bb 14 54 3b bc 66 62 11 3b 66 f7 52 bc
       -0.0059795333 -0.01143362 0.0022183894 -0.012876367
000040 26 50 38 bb f1 3b 3a bb 61 fe d4 32 11 c0 d7 3b
       -0.0028123944 -0.0028417076 2.4795726e-08 0.0065841754
000050 57 37 59 3d c3 97 55 3b b7 b2 d9 bb 4c de 50 bc
       0.05303129 0.0032591678 -0.006643619 -0.012748312
000060 76 41 80 3b cc 74 f0 3a 92 ee 0d bc b9 03 b7 39
       0.0039140536 0.0018345355 -0.008662837 0.00034907254
000070 9f b8 aa 3c c0 9b 5e 3a 03 14 75 bc 98 5a 02 bc
       0.020839987 0.00084918365 -0.014958384 -0.00795617
000080 cf 54 1f bc 89 8e 01 bc d6 e3 98 ba fc b4 9e 3b
       -0.00972481 -0.007907518 -0.001166458 0.0048433524
000090 62 1d b7 b9 06 73 18 3c 37 6b d1 bb ee d9 c9 bb
       -0.00034926372 0.0093047675 -0.006390955 -0.0061600124
0000a0 7e 68 87 3a 3b c3 38 3c d5 d8 89 bb af 54 d8 39
       0.0010330824 0.011277015 -0.0042067566 0.00041261825
0000b0 8d 37 db bb 9c d5 13 bc 20 b0 8b bb ec a3 60 bc
       -0.006689972 -0.009023096 -0.004262939 -0.013710957
0000c0 9d 46 14 bc 04 50 29 3d da 5a 40 3b cc 6c 16 bc
       -0.009050039 0.041336074 0.0029351027 -0.009181213
0000d0 b7 bc 90 28 7c 4f 1d bc e1 f9 f0 bb 82 be 5a bc
       1.6069054e-14 -0.00960147 -0.0073540066 -0.013351085
0000e0 60 e2 37 3c 92 64 35 bc 3f 47 f4 bb 73 be e8 3c
       0.011223406 -0.011071341 -0.0074547823 0.028411126
0000f0 db 0d a7 3c 98 5a d1 3b f0 bc 12 bc d0 75 fd bb
       0.020392349 0.0063889734 -0.008956179 -0.0077349916
000100 60 9b 81 3f 33 da 7b 3f 43 e2 80 3f a8 97 7f 3f
       1.0125542 0.9837982 1.006905 0.99840784
000110 5b 77 7e 3f e8 52 83 3f 37 30 81 3f 23 db 82 3f
       0.9940087 1.0259676 1.0092839 1.0223125
000120 a7 10 82 3f ea 5c 7d 3f e1 5c 80 3f 5b 63 7e 3f
       1.0161332 0.989699 1.0028344 0.99370354
000130 35 51 7b 3f 8a 94 80 3f 75 11 80 3f 5e 7a 7d 3f
       0.9817079 1.004533 1.0005327 0.9901484
000140 31 32 80 3f c5 e3 7b 3f 00 00 80 3f dc 50 80 3f
       1.0015317 0.98394424 1.0 1.0024676
000150 0c 45 84 3f 5d 97 7c 3f ab 1b 7e 3f 3e 9e 7f 3f
       1.0333571 0.9866846 0.9926097 0.99850833
000160 34 41 80 3f 7d 83 7f 3f be a2 7c 3f 9b 21 80 3f
       1.0019898 0.9981001 0.98685825 1.0010256
000170 04 94 7d 3f f6 03 7f 3f 39 03 7e 3f f5 20 7f 3f
       0.9905398 0.9961542 0.9922367 0.99659663
000180 0d f7 7d 3f 7c aa 81 3f f8 8f 80 3f ab f3 81 3f
       0.99205095 1.0130153 1.0043936 1.0152487
000190 26 fd 7f 3f 13 2f 80 3f e0 f8 7e 3f 1b 78 81 3f
       0.9999565 1.0014366 0.99598503 1.0114778
0001a0 8c ee 7d 3f 8a 7a 82 3f 7c 26 81 3f c9 be 7d 3f
       0.9919212 1.0193646 1.008987 0.9911924
0001b0 3f 9c 7d 3f 9e e3 7e 3f ba 63 80 3f 15 5f 7d 3f
       0.9906654 0.99566066 1.0030434 0.9897321
0001c0 95 b5 7e 3f fd d6 85 3f 3a 06 80 3f 02 45 7e 3f
       0.9949582 1.0456234 1.00019 0.9932405
0001d0 00 00 80 3f 73 e7 7f 3f 93 32 7f 3f 3a ae 7d 3f
       1.0 0.9996254 0.99686545 0.99093974
0001e0 92 20 81 3f 16 e5 7e 3f bb b2 80 3f eb 6d 7f 3f
       1.0088065 0.9956831 1.0054544 0.99777097
0001f0 3f 4c 80 3f b3 04 7d 3f 58 0e 80 3f f0 8f 7d 3f
       1.0023268 0.98835295 1.0004377 0.99047756
000200 75 95 65 bb 84 4a dc bb c2 09 9c 38 9c ed c7 bb
       -0.003503171 -0.00672275 7.440477e-05 -0.0061013233
000210 50 b0 f9 3a 4e 70 a8 3c a3 fd 99 bc 92 dc 10 3c
       0.0019049738 0.020561364 -0.018797701 0.008841651
000220 8b 3a 05 bc 06 9a 5d bc 1c 4a f6 bb 86 74 c9 3c
       -0.0081316335 -0.013525492 -0.0075161587 0.024591696
000230 bd 48 90 bc 8a 5d 0a bb 63 68 dd 3b b0 2e 7f bc
       -0.01761281 -0.0021112883 0.0067568286 -0.015575096
000240 8f 3d fd ba 3c 0c 45 bc 24 64 1f 33 ad 55 3f bb
       -0.0019320714 -0.012026843 3.711115e-08 -0.0029195354
000250 a4 72 39 3d 6b b7 76 3b f2 b4 1a 3b 90 38 a3 bb
       0.045275345 0.0037645947 0.0023606387 -0.004981108
000260 cc c8 e6 39 b8 86 40 3b 61 81 2c bc f9 d0 86 bb
       0.00044018624 0.0029377174 -0.010528893 -0.004114267
000270 94 d6 b7 3c da 0a b5 bb 58 38 c4 bb 9b 07 e7 bb
       0.022441186 -0.0055249752 -0.005988162 -0.007050467
000280 86 36 38 bc 18 32 ee bb 73 c5 5c bb 71 4b ba 3b
       -0.011243468 -0.0072691552 -0.0033687025 0.005685263
000290 40 4b 71 ba 52 8a 3c 3b 29 ab 21 bc bc 64 f2 bb
       -0.00092046335 0.0028768969 -0.009867468 -0.0073972624
0002a0 94 7f 67 bc 02 a9 e8 3c 40 bc 45 bb 12 31 50 ba
       -0.014129538 0.028400902 -0.003017202 -0.00079418824
0002b0 06 d7 5a 39 ea 28 54 bc 5f fd 4e ba 09 8d 00 3b
       0.00020870203 -0.012949208 -0.00078960316 0.0019615314
0002c0 0c b4 47 bc f1 b0 3d 3d 30 26 9c 39 b2 f1 17 bc
       -0.012188923 0.046311323 0.0002978309 -0.009273933
0002d0 86 81 65 29 d8 58 df bb 3d 2b 5f 3c cf c1 49 bc
       5.0960558e-14 -0.006816011 0.013621149 -0.012314274
0002e0 6c 6b a6 3c a7 95 33 bc ab 8b 84 bc 39 25 a5 3c
       0.020314895 -0.010960973 -0.01617988 0.02015935
0002f0 92 8b 42 bc c7 0b 80 bb d2 7c 1e bc 9f 55 0a bc
       -0.0118740965 -0.003907654 -0.009673314 -0.008443265
000300 5a fa dc 3b 4a 2b 9f bb d9 86 52 bc e3 69 0b bc
       0.0067437114 -0.0048574554 -0.012849533 -0.008509132
000310 06 9d 21 bb 3d 6a 0d 3d c7 d8 b6 bb 9c 89 cd bb
       -0.0024660244 0.034525145 -0.005580041 -0.006272508
000320 71 a1 68 3b 2a f1 10 bc cf 5e df bb 80 c0 03 3c
       0.0035496617 -0.0088465605 -0.006816722 0.008041501
000330 7f bd b2 bc 80 dc c6 3a 84 01 98 3a 71 18 16 bb
       -0.021818874 0.0015171915 0.0011597131 -0.0022902752
000340 69 43 26 3c d6 92 6f bc 9a de 01 33 fd e1 b3 bb
       0.010147908 -0.014622411 3.0237608e-08 -0.0054895864
000350 58 c6 2f 3d 65 9e 07 ba d1 d2 ec 3b 07 0d d4 bb
       0.042913765 -0.0005173444 0.0072272797 -0.0064712795
000360 28 e2 36 3b b8 41 58 3b 07 cf f7 bb 9e 95 16 3b
       0.0027905796 0.0032998156 -0.0075625214 0.0022977362
000370 27 eb bc 3c 39 9c e9 bb 80 fa 2d bb ea 7c 4a bc
       0.023061348 -0.007129219 -0.0026547015 -0.012358883
000380 e0 92 0e bc ca f3 b9 bc 26 bd 42 bc 4a f0 0f 38
       -0.00870201 -0.022699255 -0.011885917 3.4317643e-05
000390 24 df b6 b9 ea b6 06 bb 0e 0c 37 bb 3a a6 1b 3c
       -0.00034879998 -0.0020555803 -0.002793077 0.009500081
0003a0 a5 2b 85 bc 21 5c 87 3c b6 ba 51 bb 75 b5 8e 3b
       -0.016256163 0.016523423 -0.0032002158 0.0043551275
0003b0 c7 66 5d bc da b0 0c bc 0b 2e 2a bb 23 04 4c ba
       -0.013513274 -0.008587087 -0.0025967385 -0.0007782599
0003c0 21 c4 25 bc 47 27 d7 3c 8e 85 14 bb 40 7f c3 bb
       -0.010117562 0.026263846 -0.0022662613 -0.005966097
0003d0 95 e9 a1 28 e2 3f 36 3c 5f 25 94 3b 52 0e 27 bc
       1.797589e-14 0.011123629 0.0045210565 -0.010196285
0003e0 72 21 ac 3c eb 13 d7 bb 78 ed c6 38 38 fb a7 3a
       0.021012042 -0.0065636537 9.485608e-05 0.0012815958
0003f0 54 cf e6 ba d0 d0 85 bc b3 fd 8b bb 5e fa e5 bb
       -0.0017609396 -0.016334921 -0.0042721867 -0.0070183715

sequential/lstm/while/lstm_cell/MatMul f4 [256, 99]
000000 13 75 a6 bd 6b ac 8c 3d aa cf d3 3d de fd 2f bd
       -0.08127799 0.068688236 0.10342343 -0.042966716
000010 a4 fc aa 3d 63 2e 95 3d 39 a1 24 3c 1f 39 be bd
       0.083489686 0.07284238 0.010048204 -0.09288239
000020 28 2e 03 be e2 6c e1 bc 0f d6 bc bc b4 8b c0 3d
       -0.12810576 -0.02751774 -0.02305129 0.09401646
000030 cb 53 e7 3d 8f 6b fe 3d 10 db 01 3e 4c 73 f4 3d
       0.11295279 0.12422859 0.12681222 0.11936054
000040 34 68 92 3d 90 0c 31 bd 2b 03 e2 bb 04 6b f0 3d
       0.071487814 -0.04322487 -0.0068973503 0.117391616
000050 58 64 05 be 82 0b 1e bd b6 85 ba bd c0 11 32 bc
       -0.1302656 -0.038585193 -0.091075346 -0.01086849
000060 fd 2d a4 3d 49 de c9 3d 78 e3 1d 3d ba c8 e3 bd
       0.08016584 0.09856851 0.03854701 -0.1112227
000070 8c b1 22 bd 21 cb dd 3d 2b f1 a4 bd 78 aa ce bd
       -0.039720103 0.108297594 -0.08053812 -0.10091108
000080 ab ec 49 3c 6f a7 07 be fb 8d 71 3d d8 c3 ad 3d
       0.012324492 -0.13247465 0.058973294 0.0848462
000090 81 46 a6 3c ed d0 b5 bd 0a c8 90 bd 34 e7 b7 3d
       0.02029729 -0.0887774 -0.070694044 0.08979645
0000a0 83 8f c1 3d 52 16 e5 3c 2c 38 48 bd a0 6a 82 3d
       0.09451201 0.027964745 -0.048881695 0.06367993
0000b0 92 e3 02 3d 30 49 96 3c 52 14 00 3e 6a 57 9d 3d
       0.03195531 0.018345445 0.12507752 0.076826885
0000c0 0f 2f a1 bb 2e 0b 0d bd 24 b2 c8 3d 64 7e a5 3d
       -0.00491894 -0.03443449 0.09799603 0.08080748
0000d0 53 0d 03 bd 65 32 cc bd a0 11 18 3d 12 ba af 3d
       -0.03199513 -0.099705495 0.037126184 0.08580412
0000e0 3f 52 5e 3d 80 93 39 3c fe 02 02 3c c0 60 4e 3b
       0.054277655 0.011326671 0.007935284 0.0031490773
0000f0 11 4d 6b bc 69 47 fb 3c 83 9a 5b bb cc 35 55 bd
       -0.014361636 0.0306737 -0.0033508844 -0.052053258
000100 b4 f9 0c bd 3b 2b b1 bd 45 86 10 bd 00 eb 66 bb
       -0.034417823 -0.08650824 -0.0352843 -0.0035235286
000110 34 3b 83 bc a1 cb 15 3d da 2b e5 bc 88 60 b2 bc
       -0.016019441 0.03657115 -0.027975012 -0.021774545
000120 ab c8 03 3d 2d b2 50 3d ac 83 77 bd 5a fb 98 3d
       0.032173794 0.05095117 -0.060428306 0.074698165
000130 5c f7 fc bd 46 93 b9 3d 6d 0d 41 bd d8 00 91 bc
       -0.123518676 0.09061293 -0.047131944 -0.017700598
000140 bf 04 23 bd 61 8e 03 3e ee e4 4c bc 40 c9 c8 3d
       -0.039799448 0.12847282 -0.012505753 0.098040104
000150 f3 a2 ba 3c 4c 8e d5 ba d2 3c 95 3d 77 36 44 bc
       0.022782778 -0.0016293018 0.07286991 -0.011975876
000160 cf 2d 03 be 6b 2a 95 3d e2 5f 0e bb 14 31 99 3b
       -0.12810443 0.07283481 -0.002172463 0.00467504
000170 58 08 de bd 54 6a c8 3c 3e c6 b1 3d bb c7 95 3d
       -0.10841435 0.024464764 0.0868039 0.07313486
000180 2e a1 66 3d ca f3 af 3d 5e 11 f0 bd c4 e4 2d bd
       0.056306057 0.08591421 -0.117220625 -0.042454496
000190 96 65 cb 3d ba aa da 3d 2a 7d a9 bd cc 97 cf bd
       0.09931485 0.10677095 -0.08275826 -0.10136375
0001a0 62 a1 f5 bd be 61 a7 bd 40 52 f6 3d 1a 47 d3 3d
       -0.11993672 -0.0817294 0.12027407 0.10316296
0001b0 0b b1 3f bd c6 53 94 bd 9c 2f a0 bd 96 31 02 3e
       -0.0467997 -0.07242541 -0.07821581 0.12714228
0001c0 df f8 0d 3d 5a c8 63 bd 16 99 8d 3d b5 75 90 3d
       0.03466117 -0.055610992 0.069139645 0.07053701
0001d0 b8 62 20 bd 8f 32 6a 3b 98 b6 fa 3d ba 07 b3 3b
       -0.039156646 0.0035735702 0.12241858 0.0054635676
0001e0 75 24 f3 3d 93 00 b7 3d 72 a8 11 bd 2c 58 58 3d
       0.11872188 0.089356564 -0.035561033 0.052818462
0001f0 98 45 a8 3d 7d 61 97 3d 41 66 d7 bd 66 e1 51 bb
       0.08216399 0.07391641 -0.1051755 -0.0032025217
000200 d4 da 97 3c 52 5e 3c ba 98 85 b8 bc c8 f7 31 bd
       0.018536963 -0.00071856857 -0.02252464 -0.043449193
000210 4e 26 2b 3d 93 29 cb bd 4e 75 02 be 6d 8b 8d 3c
       0.041784577 -0.09920039 -0.1274006 0.017278397
000220 b8 af c5 3d 05 75 c1 bd 84 62 2d bd 22 e0 e3 3d
       0.09652656 -0.09446148 -0.04233028 0.11126734
000230 10 51 eb bd 59 a7 14 3d c8 56 5c 3d 8e 4e 51 3c
       -0.11490071 0.036292408 0.0537937 0.012775077
000240 f4 f6 a3 3d fe d4 8a bc e0 13 ec 3c dd 2e 07 3e
       0.08006087 -0.016947266 0.02881807 0.1320147
000250 ae bf 04 3e 8c 42 f8 bd f8 8a 34 3d cd 1f 90 3d
       0.12963745 -0.12122068 0.044077843 0.070373155
000260 25 16 26 bd bb f3 a0 3b 60 65 b8 3d d4 e0 51 3c
       -0.040548462 0.0049118674 0.09003711 0.012809951
000270 2d 71 08 3e 21 d9 93 bc 74 08 21 3d de 02 67 3d
       0.13324423 -0.018047871 0.039314702 0.05639922
000280 93 05 28 bd 2d 43 7a 3d 50 a6 be 3d 2b 3f ef bd
       -0.04102094 0.06109922 0.09309065 -0.1168197
000290 3e 97 55 bc f6 0d 8c bc f8 39 52 bc ec aa d4 3d
       -0.013036547 -0.0170965 -0.012831204 0.10384163
0002a0 1b 06 57 3d 8f 5b 87 3b 00 6e 18 ba 08 e0 55 3c
       0.052496057 0.0041307877 -0.0005814731 0.0130539015
0002b0 ab e4 9d bd 35 a8 93 bd fa 1e 8d 3d cd 9e 4f 3d
       -0.077096306 -0.07209817 0.06890674 0.050688554
0002c0 e7 36 2e bc 3a 0e c3 bd aa 96 dd bd 40 1f 4b bd
       -0.010633207 -0.09524198 -0.108197525 -0.04959035
0002d0 f8 39 c4 bd 1f f1 ac 3c 0e d0 0b bd c0 65 9b bd
       -0.09581369 0.02111107 -0.034133963 -0.07587767
0002e0 84 3c c1 bd 26 1c 01 bd d3 36 86 3d 2d e0 bf bd
       -0.094353706 -0.031520985 0.06553426 -0.0936893
0002f0 f3 38 e1 bd e9 64 3d 3d d3 9c b7 bd e4 f7 5c bd
       -0.1099719 0.046238814 -0.08965459 -0.053947344
000300 af ad 35 3b 4f 63 38 bd ee 72 1e bd e9 84 c7 3c
       0.0027721932 -0.045016583 -0.038683824 0.024355369
000310 52 d0 4a 3b 6e c2 bf bd 85 77 e0 3d 2e 15 61 bd
       0.0030946922 -0.093632564 0.109602965 -0.05495184
000320 b4 00 98 3d 2c 77 cc bc e2 33 89 bc e8 2d 00 be
       0.07422009 -0.02495917 -0.016748372 -0.12517512
000330 4e 8b 13 3d dc 56 de 3d 78 8d 3f bd d4 1c 29 3d
       0.036021523 0.10856411 -0.046765774 0.04128726
000340 73 3f ba 3d 50 97 ca bb 07 48 11 bc 75 39 fa 3c
       0.09094133 -0.0061825886 -0.00886727 0.030544976
000350 b4 67 c6 bd fc 3a 8f bc ad 06 ce 3c c0 01 03 3e
       -0.096877486 -0.01748418 0.025149668 0.12793636
000360 7d 13 d8 3c 5a c9 c2 bd 25 a6 9f bb 69 e5 e1 3b
       0.02637648 -0.09511061 -0.004872101 0.006893803
000370 a2 5c 43 bd c8 1f 45 bd 38 27 85 3d 3b 3b b2 bd
       -0.047695763 -0.048126012 0.06501621 -0.087027036
000380 5a ad 44 bd 88 53 c7 3c 82 47 11 bd 7b 58 d8 3d
       -0.048016883 0.024331823 -0.035468586 0.10563751
000390 e6 d8 56 bd 30 a7 d6 bb 3f ba fc bd b4 38 c7 bd
       -0.052452944 -0.006550692 -0.12340211 -0.09727612
0003a0 d3 7d c3 bd 50 c5 c9 bd b8 4e 00 3e 69 17 8e bc
       -0.095454834 -0.098520875 0.12530029 -0.017345147
0003b0 73 f6 2b bd 40 61 5b bb c8 bc b3 3d f1 db a5 bd
       -0.04198308 -0.0033474714 0.087762415 -0.08098591
0003c0 2d 0e 87 3d f5 d3 e8 bd 3d 1d 3b 3c d0 c0 67 3d
       0.06594501 -0.113685526 0.011420545 0.056580365
0003d0 6a ee e7 3d f1 f5 9d bd d0 5b 0c bc 54 ec f2 3c
       0.11324771 -0.07712925 -0.008566812 0.029653706
0003e0 80 4f 68 3d a4 06 8a 3d 13 5f a9 3d e9 36 b0 3d
       0.056716442 0.06739548 0.08270087 0.08604223
0003f0 00 2b f0 bd b8 11 50 3d ac 01 5b 3d fb 66 19 3d
       -0.117269516 0.050798148 0.05346839 0.037451725

sequential/lstm/while/lstm_cell/MatMul_1 f4 [256, 64]
000000 b6 2d ee 3c de 9d 3c 3d ee 82 d0 bd f9 42 3e 3c
       0.029074531 0.04604899 -0.10181223 0.011612647
000010 bd f1 fa 3d be 58 13 bc c4 32 9b 3d 3e e8 33 3d
       0.12253139 -0.008993326 0.07578042 0.043922655
000020 be 59 65 3d 56 ac 9b bc 5d 8b 9a bd cb 7c 3e be
       0.055993788 -0.019003075 -0.07546113 -0.18602292
000030 d9 0a 17 3d 96 2f 91 3d 9a c1 05 be 14 6d 8c 3d
       0.03687558 0.070891544 -0.13062134 0.068567425
000040 17 12 6d 3d 6a 6f 06 3c f1 44 b6 3c b1 b3 9b bc
       0.05787858 0.008205274 0.02224967 -0.019006582
000050 f0 35 d5 3a 3d 6e 8b 3d ed ad ab 3d 38 b8 0f be
       0.0016266685 0.06808136 0.08382783 -0.14035118
000060 b0 fb 6d bd 5d eb 16 3d 15 9f 80 3d fb 44 ed bb
       -0.058101356 0.036845554 0.062803425 -0.007240889
000070 c9 c3 a0 bc 11 e1 dd bc 40 6e c7 3c 90 7f e0 39
       -0.019624608 -0.02708486 0.024344563 0.0004281965
000080 a2 09 0e 3d b7 dc d0 3b 3b 95 0f 3d ce 96 8c 3d
       0.034677155 0.0063739675 0.035054427 0.06864701
000090 5c d9 3e bd c4 62 5b 3b 5f 00 8c 3d ec 40 69 bb
       -0.04659401 0.0033475617 0.06836008 -0.0035591675
0000a0 f7 a0 a1 3d da b3 46 3d 9b c4 91 bb 54 70 80 3d
       0.0789203 0.048511364 -0.004448486 0.06271425
0000b0 06 e5 32 3c 9a c3 32 3d 27 d2 dd bc 62 07 53 bb
       0.010918861 0.04364357 -0.027077748 -0.0032200445
0000c0 a2 0c 61 bd d7 1b b9 3c 5e 84 88 3c 55 b4 d1 bb
       -0.05494369 0.022596283 0.01666468 -0.006399671
0000d0 82 4f e6 3d ba cc 2a 3d d1 17 2e bc a9 74 9f bd
       0.11245634 0.04169915 -0.010625795 -0.07785923
0000e0 ee 81 23 bd d6 c9 93 bd 1b 9b 4c bd dc 7d 34 3d
       -0.039918832 -0.072162315 -0.049952608 0.04406534
0000f0 4c b3 b7 3c 3c 6d ec bd 11 3e cd 3c d4 f6 cf bd
       0.022424363 -0.11544272 0.02505401 -0.101545006
000100 b4 b4 11 bc 0f 9d 83 3d 2a 02 bf 3d ad 02 4e bc
       -0.008893181 0.06426441 0.09326585 -0.01257388
000110 1a 1d 65 bc 7e 86 c4 bd 05 d4 ac bd cc 8d 41 bd
       -0.013983989 -0.09595965 -0.08438877 -0.04725437
000120 4d 2f 94 bd d3 1d 5a 3d 69 39 69 bd c2 f6 73 3d
       -0.072355844 0.0532511 -0.056939516 0.0595615
000130 7e 18 c3 bd 74 36 a4 3c 80 e3 cf 3d ec d2 a1 3c
       -0.09526156 0.020045497 0.10150814 0.019753896
000140 a5 3e 79 bd 75 83 e4 bc ed 61 37 bd 5c e5 ed 3c
       -0.060850758 -0.027894715 -0.044771124 0.029040031
000150 9e c2 20 3e 58 96 25 3d de 15 70 3d d8 d5 c6 3d
       0.1569924 0.040426582 0.058614604 0.09708756
000160 a8 60 0d 3d c3 03 2f bd 10 cd 83 3d 46 2a 36 3d
       0.034516007 -0.042728197 0.06435597 0.04447391
000170 1b b4 a2 bb e1 ad fd bc 04 08 c7 3a 41 b2 4a bd
       -0.004965318 -0.030966701 0.0015184884 -0.049486402
000180 32 a6 2d 3e 7c 78 4a 3b 3f de 01 be 0b de 15 3d
       0.1695793 0.0030894568 -0.12682436 0.03658871
000190 ee 53 3d bd f7 ac a1 ba 31 f4 a2 bc ee a1 ab bc
       -0.04622262 -0.0012334873 -0.01989183 -0.020951238
0001a0 d4 e7 7f 3d 03 b7 03 3e f9 29 f3 bc ae 4c 6a bd
       0.062476948 0.12862782 -0.0296831 -0.057202034
0001b0 a8 34 bf bb be d3 73 b9 0f 37 e3 bc cb b7 a3 3c
       -0.0058351345 -0.00023253166 -0.027736215 0.0199851
0001c0 81 df 8d 3b 9b 15 f0 3d 88 1d 77 bd d8 77 cf 3d
       0.0043296223 0.11722871 -0.060330898 0.1013028
0001d0 37 31 95 3c 0f 45 0f bd 20 63 48 3d f3 ec b1 bd
       0.018211944 -0.03497797 0.048922658 -0.086877726
0001e0 e6 87 96 bc ad f9 0a bd 66 ed b7 bd 30 b4 55 bd
       -0.018375348 -0.033929516 -0.08980827 -0.052173793
0001f0 f3 4e c5 3c 82 f7 bc bd bb 89 c5 bd 65 f7 49 3e
       0.024085497 -0.09226896 -0.096454106 0.1972328
000200 83 87 35 3d 21 91 fc bc e1 f1 2e 3c 70 07 93 3d
       0.044318687 -0.030830922 0.010677786 0.07179153
000210 52 b0 a9 3d c1 46 6f 3d 28 94 96 bd 3d 5e 16 bd
       0.082855836 0.058417086 -0.07352477 -0.036710966
000220 87 75 0b 3e b3 0e 32 be 89 34 b7 3d a6 a9 d6 3d
       0.13619052 -0.1738842 0.08945567 0.104815766
000230 a4 98 05 39 38 6c e9 bc eb 2b 5d bd 9e c1 9b bb
       0.00012740731 -0.028493986 -0.05399696 -0.0047533056
000240 81 ba ec 3c 1e 2a 3d 3d de 3f ca bc b5 3b 56 3d
       0.028897526 0.046182744 -0.024688657 0.052303035
000250 15 ff e6 3d 31 a7 b5 bd 8e 0b 91 3c 19 f5 0b bd
       0.11279122 -0.0886978 0.017705705 -0.03416929
000260 66 32 ef bb 1d 46 b2 bd d3 b7 03 bd 95 47 ca 3b
       -0.007299709 -0.08704779 -0.03215773 0.006173084
000270 75 23 ec 3d 7f 7a 2c bd d2 49 48 3c bc 8b 34 3d
       0.115302004 -0.04210901 0.012224631 0.044078574
000280 8a f3 aa bc f3 b3 aa 3b 4f fa 9c 3c e6 73 0b bd
       -0.020868082 0.00520944 0.019162325 -0.034046076
000290 c5 8f b0 3b 0f eb eb 3d a3 3e 77 3c 64 a1 7e 3d
       0.0053882324 0.11519443 0.015090617 0.062165633
0002a0 28 60 34 bc 63 4c 85 37 a2 83 1a bd 5f d4 9c 3d
       -0.011009254 1.5890406e-05 -0.03772319 0.07657694
0002b0 ea 5e cd bc 57 ca 3f 3c 20 6f f8 bd b8 a1 37 bc
       -0.025069673 0.011705956 -0.121305704 -0.01120799
0002c0 f7 50 77 bb 43 bc 15 be 4f bf b2 3b bb 95 ea bd
       -0.0037737468 -0.14622597 0.0054549347 -0.1145434
0002d0 15 7c 8f 3c 9c 2e 27 3c bb 2c 95 bb 3a 4e 69 3d
       0.017515222 0.010203984 -0.0045524514 0.05695937
0002e0 ca 57 03 bd af d6 f9 bc af 13 8a 3d 70 b8 88 3c
       -0.032066144 -0.030497877 0.067420356 0.01668951
0002f0 72 80 01 be 8b 7e 9c bd 8e 41 20 bd 78 c8 ad 3d
       -0.12646654 -0.07641324 -0.039125018 0.08485502
000300 c5 70 8f bd 83 fe 09 be 73 ee ae 3b 8f 7e 2f bd
       -0.07003931 -0.13475995 0.005338484 -0.042845305
000310 bc 46 9d 3c 5e 4d 09 3d 72 26 1c 3d 17 fc 55 3c
       0.019198768 0.03352105 0.0381226 0.013060591
000320 b0 17 b2 bd 7a ea 88 bd 85 6d 78 3d 49 f8 4c bc
       -0.08695924 -0.06685348 0.06065132 -0.012510368
000330 83 ba 12 3d ed 8d 33 3d e9 b9 b0 3d dd bf b7 3c
       0.035822403 0.043836523 0.086292095 0.022430355
000340 dd 21 31 bd 32 3f ed bc c2 38 7e 3b 0a bb 98 3d
       -0.043245185 -0.028960798 0.0038791155 0.0745755
000350 c9 04 ac bd b1 d1 5d 3d 07 5a e3 bc 22 6b 0b 3c
       -0.0839935 0.054155055 -0.02775289 0.008509429
000360 6c 63 91 bd 9d cb e4 bc 59 ec a1 bd 46 71 10 3e
       -0.07099041 -0.027929122 -0.07906408 0.1410571
000370 fa 43 13 be 8f 61 83 bb 6f db 85 3d 56 ca 78 3d
       -0.143814 -0.0040094326 0.06535994 0.060739838
000380 81 fd b3 3c 6a fb 3d bd 48 fc c9 3c 60 90 cf bd
       0.021971466 -0.046382345 0.02465643 -0.10134959
000390 38 66 f4 bd 0d 51 80 bd 3f 0d 91 bc 77 70 c1 bd
       -0.11933559 -0.06265459 -0.017706512 -0.09445279
0003a0 24 55 d2 bc 72 d5 e0 3d 2f 50 b3 3d 0c b9 27 3e
       -0.025675364 0.109782115 0.08755528 0.16379184
0003b0 b3 f9 ba 3c da d7 ce 3d 9e e6 02 bd 5b 3f c2 3d
       0.022824144 0.10099764 -0.031958215 0.0948474
0003c0 fe aa aa 3c 37 e9 52 3d 44 0e 4d bc 53 77 b0 3d
       0.020833489 0.051491942 -0.012515608 0.08616509
0003d0 d1 c0 ad 3d 8c d9 16 bc d3 4a bd bc 84 c7 aa 3b
       0.084840424 -0.009207141 -0.023106968 0.0052117724
0003e0 6c 91 b1 3b 5e c1 fc bd 26 af dd bc ef 90 39 bd
       0.005418947 -0.12341569 -0.027061056 -0.045304235
0003f0 b2 45 e4 bb c4 a5 78 3c a2 34 0c 3c 03 56 9f 3c
       -0.006966316 0.01517624 0.0085574705 0.019450193
