AOS/Sonmal/app/src/main/assets/converted_model.tflite (tflite, 356632 bytes, 16 tensors)

model_1/dense_8/BiasAdd/ReadVariableOp f4 [32]
00000000: 51fe dcbe 0103 9abf 3c1c 9fbe 61f9 a33f
00000010: 0e0c 763e ab1b 2ebe 1239 8ebd 0000 0000
00000020: 78bf d93e aabf 07c0 d30d 833d 5097 1cbf
00000030: 9d30 a2bf 20f5 2b3e cebd 0bbf df5e 06bf
00000040: 7bc1 67bd ee79 6dbe dc64 53bf 2beb 28bd
00000050: 1ac5 593f e23f e6bb 7621 053f 5d79 753f
00000060: 1ad8 7d3d ae23 56be e05c 023f 7a7f 52bf
00000070: e132 3a3f fa68 3d3f 4692 ecbf 3adb c5bf
-0.43162778 -1.2032167 -0.3107623 1.2810479 0.24028036 -0.17002742 -0.06944479 0.0
0.42528892 -2.1210732 0.06399121 -0.61168385 -1.2671086 0.16792727 -0.54586494 -0.5248851
-0.056581 -0.23191044 -0.82575774 -0.0412399 0.8506638 -0.0070266584 0.5200418 0.9588831
0.06197367 -0.20912048 0.50922966 -0.82225764 0.72733885 0.73988307 -1.8482139 -1.5457528

model_1/dense_15/BiasAdd/ReadVariableOp f4 [26]
00000000: 13e6 09be cc6a 90bd f43d 28be 4501 23be
00000010: bf3f 973c 553d bbbe d3a0 833e 54be e1bd
00000020: 932e c73d d9d4 09bd 3b6b 23be 7abc babe
00000030: 9000 c2be ea41 18bf 77a3 ab3e 6a31 afbe
00000040: 6391 2d3d 51bc 84bd bd35 93be e44c 6d3e
00000050: 2ed1 3fbe 16fc 8a3d 2ac2 d23d ead5 673d
00000060: c9a5 c1bb d9f5 a5be
-0.13466673 -0.0705162 -0.16429883 -0.15918453 0.018463014 -0.3657023 0.25708637 -0.1102263
0.0972568 -0.033650253 -0.15958874 -0.3647192 -0.37891054 -0.59475577 0.3352315 -0.34217387
0.04237498 -0.06481231 -0.28751937 0.23173863 -0.1873214 0.06786363 0.1029094 0.05660049
-0.0059096557 -0.3241413

model_1/dense_14/BiasAdd/ReadVariableOp f4 [32]
00000000: 8029 143f 8667 093f cfac 9d3e c60d cd3e
00000010: d207 333f 3bf5 9d3e ec56 ff3e 5b92 b83e
00000020: 1f66 1d3f 9667 153f c74a 483f 8eff 933c
00000030: 1c15 ed3d cb98 df3e 990a 123f 3c66 913e
00000040: 778f 0f3f 57e4 423f 115d 9a3d 5c4c a43e
00000050: 245f b73e e9a4 2c3f 4019 f03e 4548 da3e
00000060: b34a bf3e 7d61 923e a34e 133f a45d 103f
00000070: 5793 aa3e 535d bc3e 2f4c 0e3e aba5 cc3e
0.57875824 0.5367359 0.30795905 0.4004957 0.6993381 0.30851158 0.49871004 0.3604916
0.6148395 0.58361185 0.782391 0.018066194 0.11576292 0.4367126 0.5704742 0.2839831
0.56078285 0.7612967 0.07537282 0.32089508 0.35814774 0.6743913 0.46894264 0.42633262
0.37361678 0.28590003 0.57541865 0.56392884 0.33315536 0.3678995 0.13896249 0.39970145

model_1/dense_13/BiasAdd/ReadVariableOp f4 [64]
00000000: 5613 8c3d 5646 c63d f251 033e 541b 593e
00000010: 5524 9cbd 8357 ce3d 111d 473d 5f77 f23c
00000020: 985b f93d ffca 423e d9bb be3d 7acf b93d
00000030: 8dcc 5e3e eb4e 15be 5989 72bd 4689 643e
00000040: 2b1c 39bd 8630 2e3d 7631 b73d 9d94 b83c
00000050: 3954 fcbc 810b 233e 83a2 b73d 8353 cfbd
00000060: d719 fc3d f51c 753d 8072 103e 89a3 293e
00000070: bfd5 c43c bef7 773e 4aae dabc daa2 d53d
00000080: 7f0b 4d3c f218 523e 2ddf 1ebd 0044 a43d
00000090: c697 493e 2376 883d 4545 ef3d a218 c8bb
000000a0: 0da9 663e 7eae 173e 6bff d03c e061 233c
000000b0: 7c78 8fbd 5b1a 2e3e f61d 1b3e 2fae d83d
000000c0: a182 a6bc 8446 313e d851 c63d 257c 133d
000000d0: ec0b 133e fb8e 553e f2b5 64bc b88a fb3d
000000e0: d2f4 043d e928 063d f332 ed3d 1111 843e
000000f0: 2fc6 0d3e 421e f73d ca4e 273e e8a4 a0bd
0.068396255 0.09681384 0.12824228 0.21201831 -0.07624117 0.10075285 0.048611704 0.029597936
0.12175673 0.1902275 0.09313173 0.09072776 0.21757717 -0.14580886 -0.059213016 0.2231799
-0.04519288 0.042526744 0.08944981 0.022531802 -0.03080188 0.15922357 0.089665435 -0.101233505
0.12309616 0.05984207 0.14106178 0.1656629 0.024027703 0.242156 -0.026694436 0.10431452
0.012514948 0.20517328 -0.038787056 0.080207825 0.19686803 0.06663158 0.11683134 -0.006106452
0.22525425 0.14812657 0.025512418 0.009972066 -0.070054024 0.17002241 0.15148148 0.10580098
-0.02032596 0.17312056 0.09683579 0.036007065 0.14360017 0.20855324 -0.013959395 0.12282318
0.03246004 0.03275386 0.115819834 0.2579427 0.13845132 0.12066318 0.1633865 -0.07843953

model_1/dense_12/BiasAdd/ReadVariableOp f4 [128]
00000000: 4514 80bd bfee 70be 7c72 133e 152d e7bd
00000010: 2a13 0bbe 5fa1 7d3d 6124 4bbe 25cf 20be
00000020: 234c b9bc 9d26 5cbe 1092 0a3e ff20 5e3e
00000030: af81 dfbc 811d 35be 1d72 183e 0e7b 433e
00000040: 9a53 8e3d bbb5 90bc 1f94 25be 6f3a 96bd
00000050: eba2 3cbe 9092 79be 14cb 023e 33fd 50bb
00000060: 8378 ecbd 66d3 f9bd a5bd 503e 6a0a a43d
00000070: 1503 59bd 0680 b3be 00c9 03be 2b13 9ebd
00000080: 7bd5 833e b988 34be 6cb9 96bd 12e3 39be
00000090: f69d 783e fd70 813d 8ea8 9ebd 6f2e cebd
000000a0: 61e7 ac3b c472 003e d621 13bd 2d24 903c
000000b0: 5bc0 a23d a91d f63d 5b5f 72bd 8cbf c03b
000000c0: 398d afbc 3f8d 90bb 90ab 14bc 5468 10bd
000000d0: cc08 0f3d b462 b2bd ca89 1dbe 1e83 01be
000000e0: b28c d2bd d38d 85bd 74a1 41be 40d2 c03d
000000f0: f9ff 54be 2efc c83c bb30 19bd 3365 49bd
00000100: 6bf3 24be ccf7 f93c da26 993c 1721 fbbd
00000110: 352b bebc 76db 62bd 93ea 4aba 7657 943d
00000120: 9070 043d 7494 203e 3ea5 c1bd 3d25 c7be
00000130: 7580 463e b81b 54be b6e3 22be 61ce 39be
00000140: fa64 63be d13f 74bd f346 93bc 79db f6bd
00000150: 258c f2bd 33a8 833d e567 67be bab4 50be
00000160: 4920 9a3d 7380 c7bd ab51 40bd 9089 b8bd
00000170: 574f 49bd 647e 00be 26df 893d e208 ffbc
00000180: f341 a7bd 0470 f8bc 2e43 bbbc 34a8 48bd
00000190: 58d9 d23d b47c 83bd c67e 3cbd 27ea 8bbe
000001a0: 2ca1 03bc 217e 173e 4c59 4dbe ad28 70be
000001b0: ec0a f2bc 5fd1 b33d 5759 3e3c ca22 18be
000001c0: 4b88 50bd 0591 07be 7434 80be cccd 8d3c
000001d0: 30de 14be ef61 3bbe e239 31be bd6a b73c
000001e0: ff59 843c 8864 65bd 91ef 01be 6e00 11be
000001f0: 6671 15be 71f9 703e e317 51be 58e2 8abb
-0.06253866 -0.23528574 0.14399141 -0.112878956 -0.1358153 0.061921474 -0.19838096 -0.1570402
-0.022619313 -0.21499105 0.13532281 0.21692275 -0.027283518 -0.17687036 0.14887281 0.1908991
0.069495395 -0.01766478 -0.16169785 -0.07335364 -0.18421523 -0.24372315 0.1277278 -0.00318892
-0.11546423 -0.12198524 0.20384844 0.08009799 -0.052981455 -0.35058612 -0.12869644 -0.077185
0.2574881 -0.1763028 -0.07359585 -0.18153027 0.24279007 0.06320379 -0.07746993 -0.1006745
0.005276606 0.1254378 -0.03592094 0.017595375 0.07946845 0.12017376 -0.05917297 0.005882209
-0.021429645 -0.004411369 -0.009074107 -0.035255745 0.0349205 -0.087102324 -0.15384594 -0.12647673
-0.10280742 -0.065211914 -0.18909246 0.09415102 -0.20800771 0.024534311 -0.03739999 -0.049168777
-0.16108482 0.030513667 0.018695284 -0.12262171 -0.023213962 -0.055385076 -0.0007740643 0.07243244
0.03233391 0.1568163 -0.094553456 -0.38895598 0.1938494 -0.20713699 -0.15907177 -0.18145134
-0.22206488 -0.059631173 -0.017978167 -0.1205358 -0.11843137 0.06428566 -0.22598226 -0.20381442
0.07525689 -0.097412966 -0.046952885 -0.09010613 -0.04914793 -0.12548214 0.06732015 -0.031132165
-0.08166876 -0.03032685 -0.022859182 -0.048988536 0.10295361 -0.064202696 -0.046019338 -0.27327082
-0.008034032 0.14794208 -0.20053595 -0.23453017 -0.029546224 0.08780169 0.01161798 -0.14857021
-0.05091123 -0.13238914 -0.2504002 0.017310046 -0.14537883 -0.18299077 -0.17307237 0.022389764
0.016156195 -0.056004077 -0.12689044 -0.1416032 -0.1459404 0.23532654 -0.20419268 -0.004238408

model_1/dense_10/BiasAdd/ReadVariableOp f4 [128]
00000000: 3a5d 52be 1249 7fbe 6e20 59be 569f 92be
00000010: 7d91 dcbe 16eb c7bd e20a 4dbe 6c95 86bd
00000020: 8044 a73d 11ca adbd d338 8dbd 1c91 99be
00000030: 9c78 c7be e38f 86be deb9 0e3d 4a48 593d
00000040: 1638 3bbe a1f7 4fbe 7f9a b0be e0b9 6abe
00000050: ad02 b1bd e024 853d f215 33be 7bf0 90be
00000060: 80d6 4abe cf10 d03c 3a57 b4be 94e0 93bd
00000070: 8328 05be abf0 13be dbf0 3cbd 0a5c 01be
00000080: 97cc fbbc 7fb5 02be b843 7bbe cd86 c2be
00000090: 4bb7 9d3d 7615 a7bc b87f e7be 925a 06be
000000a0: 4b7e 10bc 48a2 9e3d b43a 96be fdf2 88be
000000b0: dd33 9b3d a3c9 803d a31a 70bd 97d0 a5be
000000c0: 5670 14bd b60a 49be 5096 5fbe f729 393c
000000d0: 18dc 4fbd 754a b2bd a324 043e c275 18be
000000e0: 21e2 91be 9a8c cdbc 9f86 2cbe 92ad 2cbe
000000f0: 8e2f 2abe 1f42 3cbe 595b f9bd 0c6e 70bd
00000100: 7910 a2be 1f86 43be c743 45be a3ad 1dbe
00000110: 6bc1 a0be 4015 e3be d09f 59be 4dd7 abbe
00000120: c354 ba3c f40a e6bd 78a5 61be 52a2 c53c
00000130: 9701 03be 0a7c cbbd abfd 86be 358b 89be
00000140: 901f 553d 010f f6bd dae5 a2be 1aa7 d7bd
00000150: 7936 b2be 1f57 dabd a7f5 ce3c 4982 aebe
00000160: 8f95 e1bd 2e75 45be 610a 1f3d f9e0 863c
00000170: d90f a2be 2f62 97be 58fe d63c 72b6 43bd
00000180: bdf8 48be 0ca2 cabe 0f2b abbe 41a2 8ebe
00000190: d0b8 01be 011b 13be c5f6 31be ae3e 4cbe
000001a0: 4bed 3abc 1f74 33be bbae 18be 35b7 3dbe
000001b0: 16e5 c5bd 99b9 0fbf 7247 573c b52a 87bd
000001c0: 550c 11bf 2b29 1cbe ab9c f1be 2d3a 10be
000001d0: f078 80be 7190 c5bd 23d0 84bd 3451 00be
000001e0: 23ff 00be 46cb 2dbe 73da 83be 4022 bcbe
000001f0: f6b0 1abe c2c5 473e cc82 73bd 577a 12bf
-0.20543376 -0.24930218 -0.21203777 -0.2863719 -0.4307975 -0.09761636 -0.20023683 -0.06571469
0.08167362 -0.08485807 -0.06895604 -0.29993522 -0.38959205 -0.26281652 0.034845226 0.053047456
-0.18283114 -0.20309307 -0.3449287 -0.22922468 -0.086430885 0.06501174 -0.1748884 -0.28308472
-0.19808388 0.02539864 -0.352228 -0.07220569 -0.13003735 -0.14447276 -0.046128135 -0.12632766
-0.030737204 -0.12764548 -0.24537551 -0.3799347 0.07700976 -0.020395976 -0.4521463 -0.13120487
-0.008819173 0.077457964 -0.29341662 -0.26747885 0.075782515 0.06288459 -0.058619153 -0.32385704
-0.036239944 -0.19632992 -0.21834683 0.011301509 -0.050747007 -0.08705608 0.12904601 -0.14888671
-0.28492835 -0.025091458 -0.16848229 -0.16863087 -0.16619703 -0.18384598 -0.12175626 -0.0586987
-0.31653193 -0.19094132 -0.19264136 -0.15398268 -0.31397566 -0.4435215 -0.2125237 -0.335627
0.022745496 -0.11232558 -0.22035778 0.024125252 -0.12793575 -0.09935768 -0.26365408 -0.2686402
0.052032053 -0.120145805 -0.31815988 -0.10529919 -0.34807184 -0.10661148 0.02526362 -0.34083775
-0.11014854 -0.19282982 0.038828257 0.016464697 -0.31652716 -0.29567096 0.026244327 -0.047781415
-0.19626136 -0.39576757 -0.3343129 -0.27858165 -0.12668157 -0.1436577 -0.17379291 -0.19945785
-0.011409114 -0.17524765 -0.14910404 -0.18526919 -0.09662835 -0.56142575 0.0131395925 -0.065999426
-0.5665944 -0.1525008 -0.4718984 -0.14084692 -0.25092268 -0.09646691 -0.064850114 -0.12530977
-0.12597327 -0.16972074 -0.257526 -0.3674488 -0.15106568 0.19509032 -0.05945091 -0.57217926

model_1/dense_8/MatMul f4 [32, 15]
00000000: 497e 2d3f 1a2e 673e a0ec a03e 0c72 b5be
00000010: 75d1 0c3e 018a 65bf a718 47be 63f8 f53d
00000020: e55c fbbb 4fa4 16be fc6a 653d fe01 efbe
00000030: 1eb5 2d3e e2d8 73be cb27 84bb 555d ebbe
00000040: 4640 3cbf 1f37 2fbe ba1c a6be 4726 d6bd
00000050: 1f66 21bf 4753 693e 2435 873e a64b 2b3e
00000060: fc0a 9f3b 541b d83d b8c7 1e3e 1570 b53e
00000070: 2101 e23d 92ae 68bd 5d6e 13bf 33a8 c0be
00000080: 81bf c9bd db49 b5be 54cb b6be 9d3f d03e
00000090: 9d4e 993c f137 5dbc 7123 863e 6be0 40be
000000a0: 44ab 433e f91f 083e f1bc 053f 15d4 e0bb
000000b0: f738 05be 76ad b3bc 005c 8ebf 2a95 643d
000000c0: 0126 1b3e 6300 913d 3295 553d b03e bdbd
000000d0: ea78 723e e9ea 503d d5a7 1bbe b581 96be
000000e0: 8c8e 173e 44f8 9fba ac60 433e f2b0 873e
000000f0: c11a 97be af12 9dbe 365a 463e 0bfc e63d
00000100: 21e5 7a3e 49d7 9dbd 02ab 203f 7136 ddbe
00000110: 32a3 573d df43 d13d e2cd 20be 2d8b d9be
00000120: 3b61 36be cba9 4c3e 438c b43e 208b 2b3f
00000130: 881a b3be d85b 493e ce33 2ebd 9d06 5bbf
00000140: 9c85 ecbf 2265 ab3e 4a0a 793d b360 393e
00000150: ff9d 2dbe 128f bb3d 5a04 5a3d 851f 2dbc
00000160: be08 dbbd 2bcc 84be 879c 183e 98bd a0be
00000170: c5ed 313e b3bb 7abe ae74 64bd 731d 2cbf
00000180: 2df2 e9bd d578 523e 0e1b 063e 1762 4ebe
00000190: fc55 4a3e 2b5c 8a3e 7eb5 a33e db39 debe
000001a0: 167a 75bd 7cef 603e 4a20 003e 1312 86be
000001b0: c3b1 acbe 8825 a83d e4ce f3bd 08a6 debd
000001c0: b777 8ebe 02a3 ffbd 88f3 92bd c6a6 6ebe
000001d0: 40f6 7d3e f061 8abc 1048 92bd c022 96be
000001e0: 3553 ec3e 96b3 033f f2d5 a0be 124e 91be
000001f0: 1ae6 6ebd 0ed2 8cbc ac50 e6be 0329 253e
00000200: 41cf 0cbe 1353 bc3e 5d78 c9bd 6755 30be
00000210: 86ae 953e 443e 4dbe fa2b 14bf aa2e 54bf
00000220: 6a59 d03e 343c 89bd 2085 47be e9ab cdbe
00000230: 1f10 a23e 1456 c4bd 946f b23d 690b 0b3f
00000240: 0480 943e 23ea 933c 8764 d3bd 47e0 93bd
00000250: 3765 e93d 6c2f 57bd 1f61 6fbe c84e cc3e
00000260: 7ef4 873e d2a6 283e 87d0 c23e 6d4f 44be
00000270: cce8 db3d 70a5 98bf 5fab 36be ec9a b5be
00000280: 56b7 cbbd 5eb3 bbbe 3e51 b93e 50b8 fb3d
00000290: 25dc 99bd 86d5 b53e cd0b 883e 8599 00be
000002a0: 1af4 02bf fb8b 84be b07a 30be 787c 513d
000002b0: 85e2 2e3e ff16 b4bd 9078 51be af88 033d
000002c0: 41fa 8d3e ceb5 17bf dd2c d83d 451d 813e
000002d0: b715 8b3e 23e0 253e e2c8 103e 5247 4dbe
000002e0: c041 82be d2bb 1ebe f130 623f abe6 183d
000002f0: ccf8 3b3d 905e e4be 3aa3 9d3d 40ce cebd
00000300: 6656 5ebe 0149 14be 03bc de3d 8da4 cc3e
00000310: 7af2 d23e 6e34 bcbe c838 e83e 1e90 0c3c
00000320: 87ba 0b3e 2b9f cabe 0b6d fdbd 0b97 2c3e
00000330: 0a65 013e c832 5cbe a188 b6be 428a 82be
00000340: fc3f f33d 3af2 913b 3db2 a83d 829c 363d
00000350: dcf1 c3be 790b cc3e 52e0 5b3e 7a84 9bbe
00000360: 06a1 34be d31b 653e 994a f83d 6c57 403e
00000370: ce1d aebe 2fe8 00bf bc23 803e 17d8 183e
00000380: 9713 0dbe cc22 ed3d ac43 e8be 6675 233e
00000390: d7b5 e13e 9ade eebc 9a52 9f3e 6b00 bb3d
000003a0: 19ea 6dbe 893e 733d 88dc 8abe 20f7 633e
000003b0: fe5c d03e e07e 4d3e 8397 f6bd fc27 33bf
000003c0: 29a0 9dbe a2f1 cd3e 02fc d13d 5b3f 753f
000003d0: fa4f 073e 03f4 5ebe dfdc 1b3e 9267 283e
000003e0: 2cc3 783e ee8f 113d 5b36 64be 4d04 003e
000003f0: f951 b7be 21d5 92be 1731 08be 3d83 47be
0.6777082 0.2257618 0.3143053 -0.35438573 0.13751777 -0.896637 -0.19442998 0.12010267
-0.007670986 -0.14711116 0.05601023 -0.46681207 0.16963622 -0.23813203 -0.004033064 -0.45969644
-0.73535573 -0.17110871 -0.32443792 -0.104565196 -0.6304645 0.22785674 0.2640773 0.16728076
0.0048536044 0.105520874 0.15505874 0.35437074 0.110353716 -0.05680711 -0.57590276 -0.37628326
-0.098509796 -0.3540791 -0.35702002 0.40673533 0.018714244 -0.013502107 0.26198915 -0.18835609
0.19108301 0.13293447 0.52241427 -0.0068612196 -0.13010012 -0.021933299 -1.1121826 0.055806316
0.15151216 0.07080152 0.052144237 -0.09240472 0.23678938 0.051005278 -0.15200742 -0.29395834
0.14800471 -0.0012204726 0.19079846 0.26502186 -0.295126 -0.30678317 0.1937035 0.11278542
0.24501468 -0.07707078 0.6276094 -0.43205598 0.05264587 0.102180235 -0.15703538 -0.42488995
-0.17810528 0.19986646 0.3526326 0.6700916 -0.3498118 0.19663942 -0.042529874 -0.85556966
-1.8478274 0.33475596 0.060800828 0.18103294 -0.16954802 0.09158148 0.053226806 -0.010566597
-0.10695027 -0.25937018 0.1490346 -0.3139465 0.17375858 -0.24485664 -0.055775337 -0.67232436
-0.114231445 0.20553906 0.13096258 -0.20154606 0.19759363 0.27023444 0.31974405 -0.43403515
-0.059930883 0.21966356 0.12512317 -0.26185665 -0.3372937 0.082102835 -0.11904696 -0.10871512
-0.2782571 -0.12482263 -0.07175356 -0.23305807 0.24800968 -0.016892403 -0.07142651 -0.29323387
0.46157232 0.514459 -0.31413227 -0.28379875 -0.05832491 -0.017190006 -0.44983423 0.16128926
-0.13750936 0.3678213 -0.098374106 -0.17220078 0.29234713 -0.20043284 -0.578796 -0.82883704
0.40693218 -0.06700936 -0.19484377 -0.4017022 0.31652924 -0.095867306 0.08712688 0.54314286
0.29003918 0.018055981 -0.103219084 -0.07220512 0.11396258 -0.05253546 -0.23376893 0.39903855
0.2655372 0.16469887 0.3804972 -0.19170924 0.10737762 -1.1925488 -0.1783881 -0.3546976
-0.09947078 -0.36660284 0.36194795 0.12291014 -0.07512692 0.35514468 0.26571503 -0.12558563
-0.5115372 -0.25888047 -0.17234302 0.051144093 0.17078598 -0.08793449 -0.20456147 0.032112774
0.2772999 -0.59261787 0.10555432 0.25217643 0.27165005 0.16198783 0.1413913 -0.20046738
-0.25440788 -0.15501335 0.8835593 0.037329357 0.045891568 -0.44603395 0.076971486 -0.10097933
-0.21712646 -0.14480974 0.10875704 0.39969292 0.4120062 -0.3675875 0.4535582 0.008579282
0.13645373 -0.3957456 -0.12374314 0.16854493 0.126362 -0.21503747 -0.35651115 -0.25496107
0.118774384 0.0044539245 0.08237121 0.04458285 -0.38270462 0.39852503 0.2147229 -0.3037451
-0.1763955 0.22373895 0.121236034 0.18783349 -0.34007114 -0.50354284 0.25027263 0.14926182
-0.13777004 0.115789026 -0.4536413 0.15962753 0.44084045 -0.02915888 0.31117707 0.09130939
-0.23233832 0.05938581 -0.27121377 0.2226224 0.40695947 0.2006793 -0.12040617 -0.69982886
-0.30786255 0.40223414 0.10253145 0.957998 0.13214102 -0.2177277 0.15220974 0.16445759
0.24293202 0.035537653 -0.2228636 0.1250164 -0.35804728 -0.2867823 -0.13299976 -0.19483657

model_1/dense_10/MatMul f4 [128, 64]
00000000: b461 cabe 2325 fcbc 685d 183e 218a 513d
00000010: 79f5 853e ba79 a0bd ece2 6dbd 0cfd 943e
00000020: 98d5 47bd 45fc c13e d21a 083d c5af ff3d
00000030: 6d51 3bbe a886 c53d 796e 8cbe fca4 27be
00000040: da7b 023e e0bc ee3c 0abb 26bd b11a 973d
00000050: 87e0 b23e a751 0dbe a2e4 963e 82c8 d03d
00000060: 2552 ff3d f562 e03b 0ec5 083f 31a0 463e
00000070: e342 57be 1f6d 2d3e 2d62 dabe f02d c73e
00000080: 6838 113e bac5 afbe 2b24 d93d a4fe e4bd
00000090: ba43 ef3d c0be 9bbe ccc5 7abe 77db 1dbe
000000a0: 334d 26be 1bbc a9bd 452c e1be 5354 3f3e
000000b0: 7b31 a0bc 89fc a4bc 204d f53c a249 0bbe
000000c0: 056b f83d ea30 f53d 9aa9 a53d aa86 cb3d
000000d0: 0def 6fbe 1b13 943e 71dc 523f 4405 febc
000000e0: cef0 7ebe 8a5a 213e e3f4 f43d 4d17 f9bd
000000f0: 4856 353d d987 e33d 3e77 d63d 0224 a8be
00000100: c283 4c3e 40ee 333e ffdb 1abc 9413 02be
00000110: 5b10 9a3e 81eb 103e 3647 70be 673f 9e3d
00000120: 30c3 8e3e 1e0d acbb 1b5d c8bd 9b3b 123e
00000130: 591c 5dbe 3b5b 56be 0e1d 44be 2964 f73d
00000140: b2af 2bbe 50d3 a6be 4573 8abe f900 b73e
00000150: e746 283e 4430 49be 7407 1abf eb4a bd3d
00000160: 3395 45bd 8cc6 5a3c 6ac0 333d 9727 143d
00000170: b5d7 babd 72c1 83be aecb 0fbf 8b10 703f
00000180: ac2d 923e eba8 7c3e ddcd abbc 4e4c 913e
00000190: f98b 99be a5ca 003e 9aec 0d3e 22b0 063e
000001a0: 87dd 433e 9f16 063e dbfc 47bc 6184 2c3e
000001b0: 898f 4a3e edbc 9e3d 46a7 b8be 0dcd 3f3e
000001c0: e6b5 23be 70f1 8bbe b8ba d9be bbd2 ee3b
000001d0: 6128 713e ee63 e63d 0d3b e0bd e6a0 aa3c
000001e0: 6478 083c f46c 8dbd c276 8fbe 4bac 19be
000001f0: e47e af3d a600 0a3e dd84 d33d 9b28 563d
00000200: 84a6 893d 96b3 09bd fb87 e33e c3cc 90be
00000210: 1071 2abe b5a1 7dbe 5736 f0be c8ff dd3e
00000220: f004 d8ba 4133 153e 99a5 513e 09d2 cd3c
00000230: 2173 82bd 427d fc3d ff04 3fbe 831a 2ebc
00000240: 89c3 42be b95b b1be 01c6 4bbd da9d 923e
00000250: b860 b4bd d6f4 57be ffa4 453e aca2 813d
00000260: 0754 0e3e a209 e43e b5f1 443e 9134 16be
00000270: 0aae 013d 7af7 683d cbbc 21be 50bf 54bd
00000280: b464 46bd 768d 05be 71b3 43be dc5b 16be
00000290: 2d40 ddbd 3bb3 e33e fe91 36be df33 54be
000002a0: 2953 dc3b ec33 43be 70b1 fbbe 1966 50bc
000002b0: 10b5 b1bd ef7f 68be 49fe 163e bfb3 203d
000002c0: 0e0b 10bf 93f1 d1bd f31e abbe 5ad9 fdbe
000002d0: 580d b83e 8c10 bf3c c900 173e cc69 4c3e
000002e0: f0a3 8c3e a114 62bd f7f6 f33d 20b7 283e
000002f0: 655c 843d 6bb6 8f3e b424 f03d e230 a7bd
00000300: b8b2 453d 8b11 7d3d bcdf 8fbc 95ed 543e
00000310: 12ba 0fbe 40d4 be3e 6edd e7bd c56e a6be
00000320: 4b8d c1be cf6d d6bd 93c9 aebe 4a2d de3d
00000330: 95e5 a7be 66e9 633d a688 5ebe 809f 9f3e
00000340: 1c10 50be 9c65 733e 04f1 c8be 9a5b bfbe
00000350: e0cf 3a3d 477b d63d e089 3c3e 67e3 053e
00000360: 0d9a 833e 67f4 0fbe 403f f9bd c75c 073d
00000370: 94d7 9d3e 8da3 8b3e ee0c f1bd db38 243c
00000380: 5bcc c03d 9ccc 97be 6baa c83e 3195 1d3d
00000390: 37e0 2fbe 5ee0 20be 5eb3 09be 6163 183e
000003a0: e1d7 babc 5790 7dbe 2dde 163d 75fc b0be
000003b0: 37d6 21be f418 713e df7b 1b3e 189d a93e
000003c0: f2e0 a53e 79dd 40be 3b72 29bd bc2d ab3d
000003d0: 4203 a8bd bac6 9abc 4f64 23be 7953 c5bd
000003e0: c3a0 0bbe 62d6 cc3e e0b8 31bd 4af2 b23e
000003f0: 46bf a33e aa4c b03e 6f65 e93d d8e2 98bd
-0.39527667 -0.030779427 0.14879382 0.05115712 0.26163843 -0.078357175 -0.058077738 0.2909931
-0.048787683 0.3788778 0.033228703 0.12484697 -0.1829278 0.09644824 -0.27428034 -0.1637153
0.12742558 0.029142797 -0.040705718 0.07378138 0.34936926 -0.13800679 0.29471308 0.10194494
0.1246684 0.006847734 0.5342568 0.19397046 -0.21021609 0.16936158 -0.42653027 0.38902235
0.14181674 -0.3433054 0.106026016 -0.11181381 0.1168284 -0.30418968 -0.24489516 -0.1541575
-0.16240387 -0.082878314 -0.43979087 0.18684511 -0.019554844 -0.02013995 0.029944003 -0.13602307
0.12129787 0.1197222 0.080889896 0.099377945 -0.23431034 0.28920826 0.82367617 -0.03100837
-0.24896547 0.15757194 0.11960771 -0.121626474 0.044271737 0.11109895 0.104719624 -0.32839972
0.19972137 0.17571354 -0.009451865 -0.12702781 0.30090603 0.14152338 -0.23464665 0.07726937
0.2788329 -0.005250587 -0.097833835 0.1428055 -0.21592845 -0.20933239 -0.19151708 0.12079651
-0.16766241 -0.32583094 -0.2704107 0.3574293 0.16433297 -0.19647318 -0.6016762 0.09242805
-0.04823799 0.013353001 0.043884672 0.03617057 -0.09123174 -0.25733525 -0.56170166 0.9377524
0.2855047 0.24673812 -0.020972187 0.28378528 -0.29989603 0.12577303 0.13859788 0.13153127
0.19127475 0.13094567 -0.012206282 0.16847374 0.19781317 0.077508785 -0.3606512 0.18730564
-0.15987357 -0.2733264 -0.42525268 0.0072883046 0.2355056 0.11249529 -0.10948763 0.020828675
0.008329485 -0.06905547 -0.28020293 -0.15007131 0.08569124 0.1347681 0.10328076 0.05228482
0.067212135 -0.033618532 0.44439682 -0.2828122 -0.16644692 -0.24768718 -0.46916458 0.43359208
-0.0016480964 0.14570333 0.20473327 0.025124567 -0.06369615 0.123285785 -0.1865425 -0.010626438
-0.19019903 -0.3464029 -0.049749378 0.28636056 -0.0880751 -0.21089491 0.19301222 0.06329855
0.13899241 0.445386 0.19232829 -0.1466849 0.031660117 0.056876637 -0.15794675 -0.051940262
-0.04843588 -0.13042244 -0.1911142 -0.14683479 -0.10803256 0.4447268 -0.17829129 -0.20722912
0.0067237807 -0.19062775 -0.49158812 -0.0127196545 -0.08677113 -0.22705053 0.1474544 0.03923392
-0.5626687 -0.10251155 -0.3342205 -0.4957989 0.3594768 0.02332332 0.14746393 0.19962233
0.27468824 -0.055195455 0.11912339 0.16476107 0.06462935 0.2806886 0.117257506 -0.081636205
0.048266143 0.06178431 -0.01756274 0.20793755 -0.14035824 0.3727131 -0.11321531 -0.32506385
-0.3780311 -0.10470163 -0.34138164 0.10848482 -0.32792345 0.055642508 -0.21731815 0.31176376
-0.20318645 0.2376923 -0.3924638 -0.37374574 0.0456084 0.10472732 0.1841197 0.13075028
0.2570347 -0.14058076 -0.12170267 0.033047464 0.30828536 0.27273217 -0.11770044 0.010023321
0.09413978 -0.29648292 0.3919252 0.03847236 -0.17175375 -0.1571059 -0.1344733 0.1488166
-0.022808017 -0.24762093 0.036832977 -0.3456761 -0.15804373 0.23544675 0.15183972 0.33127666
0.32398182 -0.18834485 -0.041368704 0.083583325 -0.082037464 -0.018893588 -0.15956233 -0.09635062
-0.13635544 0.4000731 -0.0433892 0.34950477 0.31981868 0.3443349 0.113963 -0.07465142

model_1/dense_12/MatMul f4 [128, 256]
00000000: a338 2cbe f925 76bd 846f 4bbe 1ea2 91be
00000010: 3e9d 1abc 0b3d 2cbe ed04 d83d a923 71be
00000020: 726e 97be 3907 a0be 0e1e 9d3d 1e72 cbbd
00000030: d976 36be cf92 b5be 44ec 503e bdfe 34be
00000040: a048 113e a8d4 fc3c 2180 b3be 5280 543e
00000050: c598 09be ea5f e43d 03fb c73d d518 98be
00000060: 5275 6cbd 2b6e 903d 4747 a4be ad63 04bd
00000070: 1ee8 31bd bb7d 173e 38f9 e3bd a9f7 22be
00000080: 33d4 72bd 0325 e23d e8eb 2ebe 366e 963e
00000090: ac4b cbbd 7816 9abe 4a1f cd3d 87ff ccbe
000000a0: c842 ddbe d71a 993a f1ea bc3e 03f7 adbd
000000b0: 2251 26be 749a 2e3d 0b71 c43d d8b2 3a3e
000000c0: da15 bcbe 4043 69be e687 67bd 2cac e0bc
000000d0: 0137 37bd 787b fa3c 56b1 29be 8925 e33d
000000e0: 2146 20bd 1821 b0be 3855 2dbe 5751 3cbe
000000f0: a37e de3d 72fc 1e3e a520 a1bd 50b3 c7bc
00000100: 2dfe 863e 9bbf 0f3d 34d7 34be 4c79 34bd
00000110: e458 783c 65f0 e2be bcc1 823e 9593 413e
00000120: ea47 e8be 91e1 9e3c b6ab afbd 96fd cbbd
00000130: 700d 8bbe d55b 0cbe 2f1c 43be a420 a7bd
00000140: 82eb d83c f069 d2be 7755 3f3e 61b5 14be
00000150: 2a23 bd3e 9e2a bf3d 40e0 edbd 1eb6 733e
00000160: 604b e3bd da17 56be b95d e6bd 56fb fdbe
00000170: ae43 4fbe 5322 d1bd 582f 4cbe 3eee 31be
00000180: dcc3 e53e 7ce7 323d d03c a8be 1e5c 993d
00000190: c94e 8f3d 0a06 c23d ac40 93bd ce9f 61be
000001a0: f54d 15be bf3d c9be 7fed 89be de15 cbbd
000001b0: a23b 2f3c 3b39 86bd 8e33 86be 6d66 eabd
000001c0: 1d78 67bc d65f c83d d8d9 403e d109 9e3d
000001d0: 0bc1 213e eafe febe 281f 80be 00d7 273e
000001e0: 7656 57bd ed81 b9be 105c b7bd 9d2b debd
000001f0: aeec b9bc f6dc 8cbd 01f3 973e 2e08 61bc
00000200: 77d2 d1bd 372a 2abc f225 523d 2e14 073e
00000210: b972 ecbe 1efb 223e f53a 72be 7357 73be
00000220: 0480 a3be e56a 13bd e24b c33d 4f88 c7be
00000230: 2bb3 233d 5167 9bbe c1d5 6dbe 1ded f4be
00000240: 6f06 c1be 910c cebe b151 2e3e 92b4 56bd
00000250: 22b7 6f3d bdf4 21bf 123c c1bd 3814 853d
00000260: f79a bebe 2595 b03d 53a7 81be 82d6 84be
00000270: 15c4 e23d a76f 5f3e 8320 bbbd 8e97 16bd
00000280: 73e1 acbc 47bc a73e 89d8 03bf ea64 3bbe
00000290: 92db 513e b41c 263d 0b53 b03c d795 803d
000002a0: 2c40 9c3a 4d35 49bd 08bf 4ebe 6bf0 aebe
000002b0: 6b9c 01be 771d 2ebd 7468 e4be 3087 95be
000002c0: ceaa 133e 458e 4abc db9c e8bd 6a04 b63e
000002d0: 8e27 a2bd bdf4 fcbd d514 9abd c155 623e
000002e0: 07b4 513e 6845 5dbd 3585 03bf 40d8 28be
000002f0: 284c cabd 94ea efbc 1e39 563e ccc3 e6bd
00000300: b768 8cbe 12dc e2bd 0924 bbbe dfa1 18bf
00000310: 8a2b 13be 3dd0 ffbd 6cfb b33e 9e94 2d3e
00000320: c565 16bd f6ed 533e 8459 00bf a638 bb3d
00000330: b0ff b83e d8bd 033d b447 0fbd 5868 37be
00000340: ce6d 24be 24e3 9e3d bafa 2b3e c142 fb3c
00000350: c725 8cbe 77f2 8dbe ebf5 2ebb 6791 78be
00000360: 0ddb 853e 0fe9 b63d e68c 393d 8be7 babc
00000370: 63d8 fbbd 7c0f 763e 15ad f93d 54e2 6d3e
00000380: 74a1 6fbd a796 51be bd36 0e3e a647 58be
00000390: 95a0 e7be 3e7a 75be 8a7c c13d 0afe 47be
000003a0: b26b 2ebd 5604 29be 3d2d 82be 7217 a2bc
000003b0: ca0d 5f3d b30e 90be ea08 003e 0e1c 58be
000003c0: f0c7 5cbe af10 d13e e275 93be 4f57 173e
000003d0: aba8 cbbc 8449 21bf c29d 89be a4a5 55be
000003e0: 04f1 3f3e 2376 623e 46e8 d3be 69a4 aebd
000003f0: 4a81 6fbe 3e45 cb3c 2c16 893d 0b67 babe
-0.1681848 -0.060094807 -0.19866759 -0.28443998 -0.0094369035 -0.16820161 0.105478145 -0.2354876
-0.2957645 -0.3125551 0.07671748 -0.099338755 -0.17818774 -0.3546357 0.20402628 -0.176753
0.1418786 0.030863121 -0.35058692 0.20752075 -0.13437183 0.11151107 0.097646736 -0.29706445
-0.057729073 0.07052263 -0.3208563 -0.03232162 -0.043434255 0.14794056 -0.11131519 -0.15914787
-0.0592844 0.11042216 -0.17082179 0.2938096 -0.09926543 -0.30095267 0.100157335 -0.40038702
-0.43215013 0.0011680973 0.36897996 -0.08494379 -0.16241887 0.042627767 0.09591874 0.18232286
-0.3673542 -0.2277956 -0.056526087 -0.027425848 -0.04473019 0.030576453 -0.16571555 0.11091144
-0.03912938 -0.3440025 -0.1692704 -0.18390404 0.10863998 0.15525988 -0.078675546 -0.024377495
0.26365796 0.03509484 -0.17660218 -0.04406099 0.015157912 -0.4432403 0.25538433 0.18903954
-0.45367366 0.019394668 -0.08577673 -0.09960477 -0.2715869 -0.13706906 -0.1905372 -0.081605226
0.026479486 -0.4109645 0.18684946 -0.14522316 0.3694089 0.093343005 -0.11615038 0.23799941
-0.11098361 -0.20907536 -0.11248345 -0.49605817 -0.20240662 -0.10211625 -0.19939935 -0.17376038
0.4487599 0.043677792 -0.32858896 0.07488273 0.06997449 0.09473808 -0.071900696 -0.22033617
-0.1458052 -0.3930492 -0.26939008 -0.0991628 0.01069537 -0.065538846 -0.26211208 -0.114453174
-0.014127758 0.09783904 0.18833101 0.07716716 0.15796296 -0.4980386 -0.2502377 0.1639061
-0.05257269 -0.36231938 -0.089531064 -0.10848162 -0.022695865 -0.068780825 0.29677585 -0.01373486
-0.10245221 -0.010386041 0.05130572 0.13191292 -0.46181276 0.15916106 -0.23655303 -0.23763828
-0.31933606 -0.035990614 0.09535958 -0.38971183 0.03996579 -0.30352262 -0.23226072 -0.47837153
-0.3770022 -0.40243962 0.1702335 -0.0524183 0.05852426 -0.63264066 -0.09435286 0.06497997
-0.37227604 0.08622197 -0.2532297 -0.25944906 0.11072556 0.21819936 -0.091370605 -0.036765628
-0.021103596 0.32760832 -0.5150228 -0.18300214 0.20493916 0.040554717 0.021523973 0.0627858
0.001192098 -0.049123097 -0.2019006 -0.341678 -0.12657325 -0.04250857 -0.4461094 -0.29204702
0.14420626 -0.012363021 -0.11358043 0.35550243 -0.07917701 -0.123513676 -0.07523505 0.22103025
0.20478831 -0.05402127 -0.5137513 -0.16488743 -0.09877807 -0.02928666 0.20920226 -0.11267814
-0.2742364 -0.11077131 -0.3655093 -0.59621996 -0.14372078 -0.1249089 0.35152757 0.16951224
-0.03671815 0.20696244 -0.5013659 0.09141664 0.36132574 0.03216347 -0.03498049 -0.17910898
-0.16057512 0.077581674 0.16794863 0.03067148 -0.27372572 -0.27724048 -0.0026696872 -0.24274217
0.26143685 0.08931171 0.045300387 -0.022815486 -0.12297132 0.24029344 0.12191216 0.23230869
-0.058503583 -0.20467626 0.13888068 -0.21121082 -0.45239702 -0.23972413 0.09447582 -0.19530502
-0.042583175 -0.1650556 -0.2542514 -0.01978657 0.05445651 -0.28136215 0.125034 -0.21104452
-0.21560645 0.4083304 -0.28800875 0.147794 -0.0248607 -0.630028 -0.26878172 -0.20863968
0.18744284 0.22115378 -0.41388148 -0.085274525 -0.23389164 0.02481329 0.06693682 -0.3640674

model_1/dense_13/MatMul f4 [64, 128]
00000000: ba97 143e d4d8 a33e 0281 193e db78 a23c
00000010: 5784 9d3e ddac fdbb f195 a73e bdc4 8b3c
00000020: 2027 973e e2cc 9d3e eef4 1b3e ae5a 2ebd
00000030: 3a58 f63d 876e c5bc 92a6 dabe 726c e3ba
00000040: 14ac 81be 9640 43bd 0ee5 2a3e 8013 b9bd
00000050: ca1e 8e3e d36b 203e a3ae 82be 40f9 a63c
00000060: 07ae cc3e a1bb 42be ff40 1f3d 43a0 4c3b
00000070: 8f82 043e 65a5 6a3d aae1 f53d 4025 36be
00000080: d8d8 73be 4f85 6fbd 1680 a6be afa1 fc3c
00000090: eef6 20be 3361 83bd 89df 803d 15d2 5ebe
000000a0: 8b6e 8d3e 9f5b 463e ef46 2f3e 562d 06bd
000000b0: 4575 3bbe a712 0ebf a4ec 3bbe bd22 eabe
000000c0: 248c a93e c52a d4be 88bb 9bbe 4a69 1f3e
000000d0: 4e49 2d3d 8f1f 42be 8160 013e 46a5 c9bc
000000e0: 7852 3fbe 65f7 27be e3b6 f1bc b26d 213e
000000f0: 5fc8 10bd 699a 0abe 2bde b3be 994f 0a3c
00000100: 3db1 dcbd a1da 673d 9ab6 863e b12a 98bc
00000110: 5894 593d 1670 85bd a3ae 1b3e 7252 a5bd
00000120: f11e 9e3e 52dc a33d d7a6 94bd 4ed0 b3bd
00000130: 744d a3be b410 993d 8995 f7ba 7c83 8a3e
00000140: 12ce b43d c9dd 83be 4cc7 02be 681d a33e
00000150: d03a 8c3e 0f28 0bbf 24f3 273d f059 95be
00000160: 913f bbbd c99d 95bd f43c 953d fbf7 0b3d
00000170: 923c 9a3e 07f2 2abc 9148 d23e 0617 cd3e
00000180: 2d7a c9be 8dc2 743e 5496 0a3e 5045 debd
00000190: 0d27 a13d 496e bcbd a86c 343d cece 36be
000001a0: 8788 7c3e 1f24 ba3d 3503 b03d 9950 af3c
000001b0: f8b6 abbc 7b2e 37bc 2d0c 1dbe d821 84bb
000001c0: 09e4 743d d354 eabc a59a edbd 9010 033e
000001d0: a358 a8bd ba1c bb3d 71a3 0f3e 8805 53be
000001e0: 83d2 82bd ce7d 45be 5f92 88be 6faf 0b3e
000001f0: d10f 5fbe c9e6 8fbe ebb3 51be d974 233e
00000200: fbe9 98be afdc 45bc 65f9 89bd f44c 303d
00000210: 813e 1c3d 8953 36be 3d0c 0abe c8b7 27be
00000220: c857 d3be a4bf 543d c09f 97be 0504 8d3d
00000230: bb86 a7be 04d8 d33d d3a5 97be 1bdf 8bbe
00000240: 082e e7be 3ffe 463c e046 053c 09de 00bf
00000250: 5a33 f03d 8b9e 483e ad0e 3d3e 3842 2ebe
00000260: 367e 493c ec10 8bbc c89e 6cbe 94dd 0fbd
00000270: cd62 7a3d f3de 303d c91b 82be 279f 5e3e
00000280: a5df 35be 6cfd 013e 8a71 773e bcfb 883d
00000290: 1234 ad3e 3ec8 70bd 7a47 28bb 04b4 28bd
000002a0: a6d7 923e 364a 3bbe b9fb 20be 0053 bdbe
000002b0: c325 893d 6298 1ebe 8b73 bfbc b39c 073d
000002c0: 47b3 42be 0ac7 0c3d 28d4 7e3d 78f8 abbe
000002d0: 6e2d 6fbd 5082 0cbe 1972 a3bb 7cfa 353c
000002e0: d2db ab3d 0dfa 603e df95 3f3d b96b 8ebe
000002f0: 0085 eb3d cf1a 993c ce6a a13d f972 8b3e
00000300: d8c7 35bd 6b3b b03d 5ac3 17be c4ca 29be
00000310: a523 ce3d 1ea6 b93d 0435 463e 10ad ffbd
00000320: 8962 f6bd ec98 76be e9f3 4d3d a1ed 953e
00000330: bf8f 103e 71bd b73d e6ad 103e b5b1 d6bd
00000340: 4481 85be 0d0c ce3d 01aa 7dbe 8cb2 8c3d
00000350: 7b5a 56be 3374 083e 66d2 243e 31db 57bc
00000360: 7dab 3d3d 86d5 473e 53d1 b73d 85e3 f2bd
00000370: 8881 ddbc 423e 083e 9acc bd3c ad34 0a3e
00000380: 4cc4 dabd 516b a43d b046 bebd b21d f43d
00000390: 49fd 2a3c 61f5 64bc 0071 74bd c3ba a73e
000003a0: 44f4 acbe b84c 363e 2870 b0bd 399a da3d
000003b0: 3a78 bcbd 1e16 7ebc cc6b 523e 5b1a e43c
000003c0: 63e7 073e 6d83 7cbe f635 913e 0144 a0bd
000003d0: e6ea 01be 4f9d 82bc 5aaa b1bd 4a93 acbe
000003e0: babb aabe 2282 f5bc 528e 9cbe 0d9f 3bbe
000003f0: edda 4ebe 984d 183e 39e9 8f3e 3ee9 c53d
0.14511004 0.32001364 0.14990619 0.019833019 0.3076503 -0.007741554 0.32731584 0.017061586
0.29522038 0.30820376 0.15230152 -0.042566948 0.12028547 -0.024100555 -0.42705208 -0.0017351045
-0.25326598 -0.047669016 0.1668894 -0.090369225 0.27757865 0.15666132 -0.25523862 0.020382524
0.39976522 -0.19016887 0.038880344 0.0031223453 0.12940429 0.05728664 0.12005933 -0.17787647
-0.23813188 -0.058476742 -0.32519597 0.030838815 -0.15719196 -0.06415024 0.06292636 -0.21759827
0.276234 0.19370888 0.17116903 -0.03275808 -0.18306454 -0.5549721 -0.1835199 -0.45729628
0.3311473 -0.4143888 -0.30416512 0.15567508 0.042306237 -0.18957351 0.1263447 -0.024614941
-0.18683803 -0.16402967 -0.029506152 0.15764502 -0.03534734 -0.13535465 -0.35130438 0.008441829
-0.10775993 0.056604985 0.2631119 -0.018575044 0.053119987 -0.06515519 0.15203337 -0.08072366
0.3088298 0.08001007 -0.07258385 -0.08779965 -0.3189503 0.07473889 -0.001888917 0.2705344
0.08828367 -0.25755146 -0.12771338 0.31858373 0.2738862 -0.54358 0.04100336 -0.2917018
-0.09142984 -0.07305486 0.072870165 0.03417204 0.30124336 -0.01043368 0.4107099 0.40056628
-0.39351025 0.2390234 0.13533908 -0.10853064 0.078687765 -0.09200723 0.044048935 -0.17852327
0.24661456 0.09088921 0.08594362 0.021400737 -0.02096127 -0.011180515 -0.15336676 -0.004032355
0.059787784 -0.0286049 -0.11601762 0.12799287 -0.08220031 0.091363385 0.14027192 -0.20607579
-0.06387808 -0.19286272 -0.26674172 0.13641141 -0.21783377 -0.28105763 -0.2047879 0.15962543
-0.29866013 -0.012076541 -0.06737021 0.04304214 0.038145546 -0.17805304 -0.13481231 -0.163787
-0.4127791 0.051940575 -0.29614067 0.06885532 -0.3271998 0.10343936 -0.296187 -0.27318653
-0.45152307 0.012145578 0.008134574 -0.503388 0.117285445 0.1959173 0.1846263 -0.17017448
0.012298157 -0.016975842 -0.23107445 -0.035123423 0.06112938 0.04318137 -0.25411823 0.217404
-0.17761095 0.12694329 0.24164405 0.066886395 0.3382879 -0.058784716 -0.002567737 -0.0411873
0.28680152 -0.18290028 -0.15721025 -0.36977386 0.066966556 -0.15487817 -0.023370525 0.033108424
-0.19013701 0.034369506 0.062214047 -0.33588004 -0.058392935 -0.13721585 -0.0049879667 0.011107083
0.08391537 0.21970387 0.046773788 -0.2781656 0.11499977 0.018689541 0.078816995 0.27236155
-0.04438004 0.08605083 -0.14820614 -0.16581255 0.100653924 0.090648875 0.19356161 -0.12484181
-0.12030513 -0.24081773 0.05028144 0.2928286 0.14117335 0.0897168 0.14128837 -0.10483114
-0.26075184 0.10060892 -0.24771883 0.068699926 -0.20932953 0.13325576 0.16095886 -0.013174818
0.046306122 0.19515046 0.08975472 -0.11859802 -0.027039304 0.13305 0.02316885 0.13496657
-0.10681972 0.080282815 -0.09290826 0.119197264 0.010436364 -0.0139745185 -0.059678078 0.32759675
-0.3378011 0.17802703 -0.08615142 0.10673947 -0.09202619 -0.015508203 0.20548934 0.027844599
0.13271861 -0.2465951 0.2836148 -0.07825471 -0.12687263 -0.015944151 -0.0867507 -0.33706123
-0.3334635 -0.029969279 -0.30577332 -0.18322392 -0.20200701 0.1487335 0.28107622 0.09663628

model_1/dense_14/MatMul f4 [32, 64]
00000000: 9859 983d 69d1 9dbd da43 35be 9cc9 ea3c
00000010: 35dd 0b3e 0ae9 a5be 07c6 8ebe 45ab 9ebe
00000020: a44d a5bc 2fd1 32be c06f 783e d38a 0bbc
00000030: ef83 34bd b976 36be 12bf eabd bbd8 40be
00000040: 3a7c b13b de7a 10bd c181 4ebe 5791 3cbd
00000050: f626 633d a05b cfbc 7390 963e 0d1d 833e
00000060: 36a6 1d3d eef6 c0bd 2a85 55be 7afc c13c
00000070: b38f 4b3d 1905 7f3d b2c6 c93d 8012 283d
00000080: 91a2 37be 0b8f 4fbe 470a 1ebc 5cd3 8cbd
00000090: 7eb9 c5bd 9fbb f3bd 06a4 8dbe 67bb b33d
000000a0: 3636 2bbe 2d80 3a3e 62a8 d53e f832 913e
000000b0: b480 11be fe93 83be 8508 133e 20a9 373d
000000c0: 80a9 2b3d 17f1 eb3c e6fc 91be 4ab0 173e
000000d0: cb9c 42be 2e63 873d 6789 6f3d b137 68be
000000e0: 8a03 293e 17b3 f33c 6fee 043e 84b7 163d
000000f0: ea8d d5be ba64 b2be 7e02 813d f427 acbc
00000100: 0da1 23be 7bbb 19bd bdb9 a43d 02d4 0bbe
00000110: c902 8fbc d6e9 a2bd b614 a2be 16c6 ccbd
00000120: 86a8 9cbe 6a35 90bd f001 673d 4129 ce3c
00000130: b253 2e3e 4c7b 43bd ef73 ee3d 8fbf 4e3e
00000140: ca59 e7bd 16ee fe3d 8c7b 57be cf6d f03e
00000150: 1ed0 38bd 8a86 23be 2903 b33e db43 a83e
00000160: 524c 1abe f7ac 073d 5118 20bc a910 c7bd
00000170: a7eb 26be 908c cdbd 0980 7a3e 0cd8 6ebd
00000180: 4f8d 593e ada0 aabe db81 563e 3098 1e3e
00000190: 900a 833e 927d 12bd 68e5 7a3e 4e78 60be
000001a0: 7080 453e 97d9 013d c490 313d 9e8b 19be
000001b0: 8c84 803d 2649 2fbe b3d8 d13d c77c 5abe
000001c0: 75fc efbd 9a08 303d 0c6b 233e c5cc 83bd
000001d0: 3dc7 20bc e425 a4bd bf1c 4f3d 98f4 3f3e
000001e0: 9c72 c3bd 9bf1 153e 4862 8bbd 72d5 723c
000001f0: 9a94 35be 79c6 5fbd 14e7 b3bd eff5 c63c
00000200: 5119 973e 483c 7dbe 1ee4 a8be 3d81 2e3e
00000210: bd94 9abd 0848 42bd 83a5 113d 341a 893d
00000220: 25e0 0bbe 29de 223e c130 0ebe 340e a1bc
00000230: 1d37 1dbe 584a 753e c4e7 06be 45bd bcbe
00000240: 105b 83be 7022 b7bd 40aa 83be 4e3d 093d
00000250: 0969 dfbe 7ee8 99bd 5b79 bfbc 8aed 1abd
00000260: b9f9 c2bc 6c9e f6bd 44ac 9dba 1972 b8bd
00000270: 5f4a 7ebd 7fd4 a43e 09cd e93d 1b39 6abd
00000280: 3c78 053e fdcd 243e de43 24bd 2bcb d0bc
00000290: afeb 20be 9ee6 d0bd d6ea 7e3e f32a a33c
000002a0: 4074 14be 99e3 bd3e ca70 7a3d d6c2 e83d
000002b0: 3b72 18be c2aa 4a3e 4df0 52be cb05 8ebe
000002c0: 5c54 0b3e 7a8b 903d 41ab 33bd 4f4c c5be
000002d0: 8454 f93c 46e2 09bf 6905 ad3d e431 873d
000002e0: 33f2 a5be 6be4 1ebe 7c68 2f3e 1dea 2dbe
000002f0: d3fe 3fbb 6b67 3abe 254c 173e a996 2ebd
00000300: 7438 063d f332 563b 3dca 013e fa7e bc3d
00000310: b747 39bc 46d6 38be 28f5 563e 4076 dcbe
00000320: f140 d23e a569 7b3e 2048 b33d 29d6 d83d
00000330: 3c3b 373d 0acd 923c 0413 42be 0b38 06bd
00000340: 0d36 04be bb25 4cbe ead2 bebc 0c18 093e
00000350: f8a0 f53d d726 2ebe 377e 64be e79a 55be
00000360: 377a 673d 4444 8dbb c4c3 38be 1c4e 4fbd
00000370: 0b71 9ebe ccb3 2abd dbf7 c5bc 6b75 d4be
00000380: 1748 bfbe e387 69bb 00d6 9ebd 0163 9abe
00000390: fa64 82be c041 0bbf 8829 99bd 47b4 733e
000003a0: 8897 d7be 0962 56bd 0f34 c1bb b19e 62be
000003b0: 5d0f 803e 892e 5ebd a430 80bd 4b95 72bc
000003c0: d957 bfbd 5f96 263e 76e1 77be f463 993d
000003d0: 6813 69be 9c35 e6bd a4ca 52bd ad1b 2c3e
000003e0: 2b6b c83c 6b27 c83e 4628 18bc 8c68 58bd
000003f0: 41bf 043d 6266 5b3d e1e1 25bd a869 003e
0.07438964 -0.077059574 -0.17701665 0.028660588 0.13658603 -0.32404357 -0.27885458 -0.30990043
-0.020178623 -0.1746261 0.24261379 -0.008516985 -0.044071134 -0.17818727 -0.11462225 -0.18832676
0.0054164203 -0.035273425 -0.20166685 -0.046037044 0.055457078 -0.025312245 0.2940708 0.256081
0.03848859 -0.09422098 -0.2085158 0.02367996 0.04969759 0.06226072 0.09852351 0.041033268
-0.17933108 -0.2026941 -0.009646005 -0.06876251 -0.096545205 -0.1190102 -0.27664202 0.087759785
-0.16719899 0.18212958 0.41730028 0.283592 -0.14209253 -0.25698847 0.14358719 0.044839025
0.041909695 0.028801484 -0.2851326 0.14813343 -0.19005124 0.06610714 0.058480646 -0.22677495
0.16505256 0.029748483 0.1298158 0.036796108 -0.41709834 -0.34842473 0.062993035 -0.021015145
-0.15979405 -0.03753231 0.08043239 -0.13655093 -0.017457383 -0.07954757 -0.31656426 -0.099987194
-0.30597323 -0.07041438 0.056398332 0.025166156 0.17024115 -0.047725007 0.11643206 0.20190261
-0.11296423 0.12447755 -0.21043223 0.46958777 -0.04512035 -0.15969291 0.34963349 0.3286427
-0.15068176 0.033123937 -0.0097714225 -0.097199745 -0.16300832 -0.10036576 0.24462904 -0.058311507
0.21245311 -0.3332571 0.20947973 0.15487742 0.25593996 -0.035764284 0.24501574 -0.21920893
0.19287276 0.03170165 0.04335095 -0.14994666 0.06275281 -0.17117748 0.1024641 -0.21336661
-0.11718074 0.042976953 0.15958804 -0.06435541 -0.009813127 -0.080150396 0.050564524 0.18745649
-0.095433444 0.14642946 -0.06805855 0.014821397 -0.17732468 -0.054632638 -0.08784309 0.024287192
0.29511502 -0.24730027 -0.3298654 0.17041488 -0.07547901 -0.047431976 0.035558235 0.06694451
-0.13659723 0.1590506 -0.13885786 -0.019660093 -0.15353055 0.23954141 -0.13174349 -0.3686315
-0.25655413 -0.08942115 -0.25715828 0.03350573 -0.43634823 -0.075150475 -0.023373296 -0.03782419
-0.023800718 -0.12041935 -0.0012029489 -0.090061374 -0.062082645 0.32193372 0.114160605 -0.057183366
0.13034147 0.16094203 -0.040103786 -0.025487503 -0.15714906 -0.10200237 0.2489427 0.01991794
-0.14497471 0.37087706 0.06114272 0.11365287 -0.14887325 0.19791701 -0.2059948 -0.27738795
0.136064 0.07057853 -0.043864492 -0.3853478 0.030435808 -0.5386089 0.084482975 0.06601313
-0.32411346 -0.15516822 0.17129701 -0.16983838 -0.0029296174 -0.18203513 0.1477514 -0.04262415
0.03276868 0.0032684177 0.12674804 0.09203906 -0.011308602 -0.18050489 0.20991957 -0.43058968
0.4106517 0.24552019 0.08753991 0.10587723 0.044734225 0.017920036 -0.18952566 -0.03276829
-0.12911244 -0.19936268 -0.023293931 0.1338808 0.11993593 -0.17007004 -0.22313772 -0.20859872
0.056513038 -0.0043111164 -0.18043429 -0.0506116 -0.3094562 -0.041675374 -0.024166038 -0.41495833
-0.37359688 -0.0035633973 -0.07755661 -0.3015366 -0.25467664 -0.543972 -0.074786246 0.23799239
-0.42107797 -0.052339587 -0.0058960984 -0.22130848 0.2501172 -0.054243598 -0.062592775 -0.014806102
-0.093429275 0.162683 -0.242071 0.07489768 -0.22761309 -0.11240694 -0.051462784 0.16807432
0.024465164 0.39092574 -0.009286946 -0.05283408 0.032408956 0.053564437 -0.040498618 0.12540305

model_1/dense_15/MatMul f4 [26, 32]
00000000: f3e7 8b3d 0d91 71be 97e5 c5be ddd4 ec3d
00000010: 1fc4 04be 875a b5be 1084 03be e73c e0be
00000020: 7f0e 7bbe 1c0c c13e 86bf 543c 79f7 64bd
00000030: ddfe 22bf 15ea 8ebd 8a4e 313e 65ad a3be
00000040: 99f1 b53b 3e94 b23d b088 e63b 6e8f fc3d
00000050: 9046 a1be 98ce 96be bcba 21bf ca51 10bf
00000060: 2cf3 2f3d 8bea 43bf 2e46 c5be 91bf 77bf
00000070: 9581 e63c e8d4 6fbd 44cb 08be cca7 54bf
00000080: ff21 e73d 8621 acbe a053 28be 16d8 093e
00000090: b80d 3cbe 6ea8 4bbe 2316 6abd e9b2 34bf
000000a0: cd35 f6be af66 5a3e ef9f 0e3b 4e32 4abe
000000b0: ae73 57bf a31a 00be d770 6a3e 8d88 86be
000000c0: 7f3d c2bd 70ad 30be 0873 1dbe 31cc 92bd
000000d0: 5a60 b8be 2d41 95bd 8080 b4be 0456 98be
000000e0: 4498 873d 49e8 81bf 3c4d c5be ee97 19bf
000000f0: cbab bb3e 13cf 02be 7258 36be 7e4c 74bf
00000100: 1ec9 b6bd ca8d 523e 61eb 0ebe 566f d3bd
00000110: 48fc 8fbe 7eee a6be ef4d 2bbf fba6 c7be
00000120: 1c6b 9b3e 233f dcbe 93b5 c6bd 94b2 4abf
00000130: 2884 adbf 96d9 a53c d520 76bd ed20 2dbe
00000140: 4f14 ffbe e36e 46bf 15b3 98be f422 e1bd
00000150: af3a 03bf c53a cabe f1fe a4be ce1c 803e
00000160: 87a5 e2bd f083 ab3c d7fa 39bd 1909 d6bd
00000170: 63f6 9d3e 7714 39be d0e2 0dbf 1b47 6e3d
00000180: 978b fabe e782 143e a30d 43bc 5a8f a3bf
00000190: a233 e5bd d84d 5dbe 6f6e 26bf b41d e6be
000001a0: 9479 5ebe f74d 62bf ff12 0cbf 6d6a a03d
000001b0: 25f0 27be f3c8 b1be 0f59 483e 3af7 3dbf
000001c0: f432 05be 8134 abbf 8811 f3bd e900 a83e
000001d0: 75cb 533e b9bd 86bf fd86 57be c373 35be
000001e0: 2828 263e 5736 da3c d9b1 8bbd 80a3 45be
000001f0: 3f7f 0c3c 6dc5 473d ae3b e0be c28a 8d3e
00000200: 9770 c9be f9bd cc3e e43e 61bf 6406 46be
00000210: 2e6d e5bd 3380 7dbd dbb2 f8bd de62 8dbe
00000220: 3e6a 9b3d 3548 573e 9fca a8be 93fe 0cbe
00000230: 6a54 26bf 63e6 84be a343 22bf 7546 40bd
00000240: 4e22 0a3e 706c e13c 517c 9fbe 72f5 04bf
00000250: 32d0 eabe df33 06be b782 c4bd 9ea0 7ebe
00000260: 2e0c 30bd 0a72 97bc 2a13 b5bd e14b b5bb
00000270: 26e1 c8be 227e e9bd ab46 d2be cbaa 6e3d
00000280: 7ff7 38bf 0c09 963c 4bd8 08bc 2bab 86bf
00000290: d728 93be 48de f73d a487 13bd 2c5b 61be
000002a0: 3e94 66be bc0a 9bbf aff2 9dbe 5864 84bf
000002b0: d81a 37be dbed 63be bca3 06be bcab 85be
000002c0: 0927 debe 80ec 9ebe 7105 8d3e d088 81be
000002d0: f66d b63d d99d b0bd 1b1e 87be 222d 353e
000002e0: d9a9 3b3d 1b91 98be 33f5 e5bb 4a9a 74bd
000002f0: 8082 11bf ff5a 9a3e d1a8 8fbe 2201 8a3d
00000300: 369f f0bc 1fb7 71bc 0c8f 0abf 223e cabd
00000310: 7d2a 51bf 7bd1 7abe c8aa b1be 61a6 19bf
00000320: 4279 883e 8f84 09bd 37be 9c3e a0f4 a3be
00000330: ca30 34bf 5dfd f8bd 7aca afbc dad4 bdbd
00000340: ddc5 06bf 107c e83c ea99 83be 7cb7 c0be
00000350: 8817 84be 770e 49be 4f73 0bbe bf72 e33c
00000360: e330 ac3d e277 2ebd e552 bc3e 83f3 8f3d
00000370: 1dba 613c 0f77 8ebd 8b8b 3fbf a8bc 813e
00000380: 0eb1 a73d e432 74be 75cb c2be dc4a 83bf
00000390: 4b84 1dbf 3bd4 493e 1d03 8bbd de3d 00bf
000003a0: 403f 73bf ca16 90be 2d4c d1bb 4850 85bc
000003b0: f65d 8b3c 656b fdbe cb52 16bf fe92 99bb
000003c0: d72a 2f3c a5dd 693e 8c16 443d e2d8 2ebd
000003d0: 636e 9a3c 2eb3 a1bd f0b8 abbe aed8 443a
000003e0: a177 353e b373 3cbe 9844 1cbe c947 c43d
000003f0: 97e1 00be c06f 0fbe 983c 63bf 9205 a7bd
0.0683135 -0.23590489 -0.38651726 0.11564038 -0.1296544 -0.3542063 -0.12843347 -0.43796465
-0.24517249 0.3770455 0.012985116 -0.05590007 -0.6367014 -0.06978241 0.17315117 -0.31968227
0.0055524823 0.08719681 0.0070353374 0.123320445 -0.31499147 -0.29454494 -0.6317556 -0.563748
0.042956516 -0.7652976 -0.38530105 -0.9677668 0.028137961 -0.058552653 -0.1335879 -0.8306854
0.11285781 -0.33619326 -0.1643815 0.13461336 -0.18364608 -0.1988847 -0.057150017 -0.70585495
-0.48087922 0.21328233 0.0021762808 -0.19745752 -0.8416089 -0.12510161 0.22894607 -0.26276055
-0.09484386 -0.17253661 -0.15375912 -0.07167853 -0.3601101 -0.07287822 -0.35254288 -0.29753125
0.06620839 -1.0149013 -0.38535488 -0.5999745 0.36654505 -0.12774305 -0.17807177 -0.9542922
-0.08925079 0.205619 -0.13956977 -0.1032397 -0.28122163 -0.3260383 -0.6691579 -0.38994583
0.30355155 -0.4301692 -0.09702601 -0.7917874 -1.3555956 0.020245355 -0.060089905 -0.16907091
-0.49820182 -0.7751295 -0.2982413 -0.10992995 -0.5126142 -0.39497963 -0.32225755 0.25021976
-0.11066728 0.020936936 -0.045405235 -0.10450954 0.3085204 -0.18074213 -0.55424213 0.05817328
-0.48934624 0.1450306 -0.011905107 -1.2778122 -0.11191489 -0.21611726 -0.6501226 -0.44944537
-0.21726066 -0.88400215 -0.54716486 0.07832799 -0.16400202 -0.34723625 0.19565223 -0.7420536
-0.13007718 -1.3375398 -0.11868578 0.32813194 0.20683081 -1.0526649 -0.21047588 -0.17719941
0.16226256 0.02663724 -0.06821031 -0.19300652 0.00857526 0.048772264 -0.43795532 0.27644926
-0.39343712 0.39988688 -0.8798659 -0.19338375 -0.11202465 -0.06188984 -0.12143489 -0.27614492
0.075886235 0.21023639 -0.32967088 -0.13768987 -0.64972556 -0.2595702 -0.63384455 -0.046942193
0.13489649 0.027517527 -0.31149533 -0.5193702 -0.45861965 -0.13105725 -0.095952444 -0.24865958
-0.042980365 -0.018486995 -0.08841546 -0.005532727 -0.39234275 -0.11401011 -0.4106954 0.05826835
-0.7225265 0.01831486 -0.0083523495 -1.0520986 -0.28742096 0.12102944 -0.03601803 -0.22007436
-0.22517487 -1.2112651 -0.30849215 -1.0343122 -0.17881334 -0.22258703 -0.13148397 -0.26107585
-0.43389156 -0.3103981 0.27543214 -0.25299692 0.08907692 -0.08623857 -0.26390156 0.17692998
0.045816276 -0.29798207 -0.0070177554 -0.059717454 -0.5683975 0.3014755 -0.28058484 0.06738497
-0.029372793 -0.014753132 -0.5412452 -0.09875132 -0.81705457 -0.24493973 -0.34700608 -0.600195
0.26655012 -0.033573683 0.30613872 -0.32022572 -0.70386946 -0.121577 -0.021458853 -0.09269114
-0.52645665 0.02837947 -0.25703365 -0.37639987 -0.25799203 -0.19634424 -0.13618205 0.027764676
0.08407762 -0.042594798 0.36781994 0.07028868 0.013777283 -0.069563024 -0.748223 0.25339246
0.081880674 -0.23847538 -0.3804585 -1.025722 -0.6152999 0.19709866 -0.06787703 -0.500944
-0.95018387 -0.28142387 -0.0063872547 -0.016273633 0.017012578 -0.49495998 -0.5872008 -0.0046867123
0.010691366 0.22838457 0.047873065 -0.042687304 0.018851465 -0.07895504 -0.33539534 0.00075090944
0.17721416 -0.18403511 -0.15260541 0.095840044 -0.12586056 -0.14007473 -0.88764334 -0.08155359

model_1/dense_9/MatMul;model_1/dense_9/Relu;model_1/dense_9/BiasAdd f4 [64]
00000000: 926e 853f b02d 7e3f a018 003e 5a5a 0fbf
00000010: 4c58 8b3e 8029 9f3f 1d42 45bf b984 4c3f
00000020: 522d 8a3e d11f 2e3c 3ea7 473f e6b1 933e
00000030: b81c 16bf e7c4 613e 360f 2e3f d6f6 893f
00000040: 9c7e 44bf e1c0 403f 594e b13e f104 50be
00000050: a1ad 863f 1e0e afbe bb31 043f d296 193f
00000060: b2ac 213f 2858 2b3e 09f3 513f 75df c2be
00000070: 6b2a 53bc 1359 db3e 4641 913f cf72 683e
00000080: 7e11 533f 4f19 fe3e 7ccf 7f3f 47ff 2e3e
00000090: ce5f 493f 900c 923e d798 083f c64e 0a3f
000000a0: 13de dd3e b7d4 973e cfc9 3abf ce8f 263c
000000b0: 71fa 61bf 3ba1 98be 991e 983e 8538 f93d
000000c0: 7e0c 993b f5d5 6e3f 7a70 143f 43d8 503f
000000d0: 3cdd eb3d b9fc 6fbf f3b2 4cbf 921e 05bf
000000e0: 3a12 8e3f 52e3 febe 992c 043f 8b2b ee3e
000000f0: 60ca 963f d5a4 573f 038b a13f d6c2 963f
1.0424368 0.99288464 0.12509394 -0.5599724 0.27215803 1.243454 -0.77054006 0.7989002
0.26987702 0.010627703 0.77989566 0.28846663 -0.5863757 0.22047769 0.6799196 1.0778453
-0.7675569 0.7529431 0.34630087 -0.20314385 1.0521737 -0.34190458 0.5163838 0.5999576
0.6315414 0.16732848 0.8201147 -0.3806111 -0.012888531 0.42841396 1.1348045 0.22700046
0.82448566 0.49628684 0.9992597 0.17089568 0.7866181 0.2852521 0.53358215 0.5402645
0.43333492 0.29654476 -0.72964185 0.010166122 -0.8827277 -0.2981051 0.29710844 0.12168983
0.0046706786 0.9329522 0.57984126 0.8157999 0.115168065 -0.93745 -0.79960555 -0.5199977
1.1099312 -0.49782807 0.5163055 0.46517596 1.178051 0.8423589 1.2620548 1.1778209
