AOS/Sonmal/app/src/main/assets/model_01.tflite (tflite, 356212 bytes, 16 tensors)

dense_7/bias f4 [26]
000000 48 94 fe bd 35 d9 6c be 54 93 2b 3e 2b 6d 54 bd
       -0.12430626 -0.23129733 0.1675542 -0.051861923
000010 5a 67 8f be e8 b9 a4 be ef 99 69 bd 49 96 15 3e
       -0.28008538 -0.32173085 -0.05703157 0.1460811
000020 ee 3d bd be 5d a5 d2 3d cd 26 a5 bd 2a a9 33 bd
       -0.3696131 0.10285447 -0.08064041 -0.0438625
000030 17 29 b4 3d 13 f4 f7 bc e5 6b 6f 3e 9a 7e 96 bd
       0.087969 -0.03026775 0.23381002 -0.07348366
000040 5a d7 46 3e 12 f7 e1 3c 02 30 6b 3d ab bd 62 3e
       0.19418088 0.027583633 0.05741883 0.22142665
000050 96 7f 21 3e 03 69 c7 3d 11 da 36 39 09 96 ae bd
       0.15771326 0.09736826 0.00017438109 -0.08524711
000060 08 33 6c bd 3c 35 6e be
       -0.057665855 -0.23262495

dense_6/bias f4 [32]
000000 3d 74 3f 3f 46 be ed 3e 74 c1 2f 3f ce d6 1a 3f
       0.7478674 0.4643423 0.6865456 0.60484016
000010 bc 7f 64 3f 2e f8 42 3f 18 87 41 3f ea 45 2d 3f
       0.8925741 0.7615994 0.7559676 0.67684805
000020 8d 03 6b 3f 46 06 5f 3f 74 a6 82 3f 40 54 28 3f
       0.91802293 0.8711895 1.0207047 0.65753555
000030 9d 0d 32 3f 59 df 3b 3f bf 5d 0f 3f a7 77 ea 3e
       0.6955202 0.73387676 0.5600242 0.45794412
000040 16 4d 0d 3f b3 6b 33 3e 42 a5 e9 3e 33 a2 2c 3f
       0.5519575 0.17521553 0.45633894 0.67434996
000050 78 ff 67 3f ea f9 49 3f 62 29 0f 3f 76 05 40 3f
       0.9062419 0.78896964 0.5592252 0.7500833
000060 f8 b9 e6 3e 06 35 a8 3e f8 e9 32 3f 52 a2 0a 3f
       0.45063758 0.32852954 0.6988826 0.5415393
000070 52 7e 4e 3f 7b b7 f5 3e 1c 46 5b 3f c7 89 04 3f
       0.806615 0.47991547 0.85653853 0.5177273

dense_5/bias f4 [64]
000000 45 e8 67 bd 23 9e 8d 3e 6a d2 a0 3e 0d 29 62 3e
       -0.056617994 0.2765971 0.31410533 0.22085972
000010 52 42 a7 3e b2 f3 1d 3e 9f 3d 50 3e ec c4 f6 3d
       0.32667786 0.15424994 0.20336007 0.120492786
000020 f7 35 35 3e 64 9a 99 3e 0f 59 cf 3d bb e9 3c 3d
       0.17696367 0.30000603 0.101244085 0.04612134
000030 3b 13 aa 3d cc 39 ca 3d c1 a3 9b 3e b1 cb 09 3f
       0.08304449 0.09874305 0.30398372 0.53826433
000040 fc c1 53 3e b2 17 0f 3e bd 23 03 3e 59 3b 59 3e
       0.20679468 0.13973883 0.12806602 0.21214046
000050 3b 6d bf 3e b2 4d 3e 3e 72 e6 25 bd 70 a3 66 3e
       0.37388024 0.18584326 -0.040502973 0.22523284
000060 97 d5 ad 3e 4c 79 1d 3e 4e 14 0f 3e 4c 8f 78 3e
       0.3395202 0.15378302 0.1397259 0.24273413
000070 63 9b 4d 3e 6d a8 15 3e a4 3a 94 3e 25 6d 7a 3e
       0.20078807 0.1461503 0.2895099 0.24455698
000080 2c 45 0c 3d 7c 76 0e 3e e4 85 c1 bc ac 36 97 3d
       0.034245655 0.13912386 -0.023623414 0.07383475
000090 4f 64 23 3e d1 46 9d 3e 20 97 b0 3e f9 00 60 3e
       0.15956233 0.3071809 0.344903 0.21875371
0000a0 73 e2 5f 3e 7c 24 28 3e c9 91 91 3e 70 93 71 3d
       0.21863727 0.16420168 0.28431538 0.058978498
0000b0 b1 d5 7a 3e 68 62 2b 3e 8c 28 ea bc 60 fb f5 3d
       0.2449558 0.16736758 -0.028583787 0.120108366
0000c0 b3 dc 9a 3e e7 40 02 3e ad 83 37 bc 5c a9 cc 3d
       0.30246505 0.12720071 -0.011200828 0.0999324
0000d0 6c 65 36 3e b9 37 c1 3e 63 6d 4a 3e 6a 97 58 3e
       0.17812127 0.37737826 0.1976829 0.2115151
0000e0 d6 6a e5 ba f1 cb 03 3d e7 67 03 3d 46 d4 30 3e
       -0.0017503153 0.032176916 0.03208151 0.17268476
0000f0 61 27 13 bc f6 71 35 3e 26 e1 af bd 70 4c 30 3e
       -0.008981557 0.17719254 -0.085878655 0.17216659

dense_4/bias f4 [128]
000000 29 d1 31 be 53 fd 70 bd ca 44 0b be 10 b0 4a be
       -0.17364945 -0.05883534 -0.1360046 -0.19793725
000010 a0 19 ff bc c1 50 31 bd 99 fa b6 bc a8 aa b5 3c
       -0.031140149 -0.043289904 -0.022336291 0.022176102
000020 6d 84 1b 3c 84 9a ff bd ea 30 12 bd 93 90 56 3d
       0.009492022 -0.124806434 -0.03569118 0.05238397
000030 fe d3 92 bd 1f cb f2 3c 50 2f 83 3d 2c 08 02 be
       -0.071693406 0.029637871 0.064055085 -0.1269843
000040 1a 8d a7 3d cd 5c ab 3d 6c b6 e2 3d 9e a8 f0 3d
       0.0818121 0.0836731 0.110699505 0.11750911
000050 6a 5b 8c bc 20 60 a9 bd 3a 34 d5 bd eb 36 4b be
       -0.017133433 -0.082702875 -0.10410352 -0.19845168
000060 aa 4b a8 bd be 95 f1 bb de 70 03 3d a1 8c 11 3e
       -0.08217557 -0.007372587 0.03209006 0.14213802
000070 06 f9 57 bc 37 12 5e be e1 93 e3 3d 96 1f 98 3d
       -0.01318193 -0.21686636 0.1111219 0.074278995
000080 79 90 88 bd f0 d5 ce bc 7e c0 28 3e c7 d1 f4 3d
       -0.06668181 -0.025248498 0.1647968 0.11954074
000090 15 98 50 bd 61 b8 09 be b7 f2 1e 3e b0 94 79 be
       -0.050926287 -0.13449241 0.15522276 -0.24373126
0000a0 2a 85 81 bc c4 bc d0 bc fa 19 fe 3a e6 b3 bb bd
       -0.015810568 -0.025480635 0.0019386404 -0.09165172
0000b0 6e da ef 3d 5d 9a 13 3e 9e 3c 4f 3d 34 78 c7 bc
       0.11711584 0.14414354 0.05059492 -0.02434931
0000c0 64 78 67 3d 98 4a 78 3d 32 4f 81 bd 1e 83 56 bc
       0.056511298 0.060618013 -0.063139334 -0.013092784
0000d0 59 24 36 bc 02 78 cb bd 27 bb 32 bd 96 e7 5b bd
       -0.011117064 -0.09934999 -0.043635514 -0.053687654
0000e0 f9 98 61 bc a7 24 e2 bc d7 71 37 3b ce 3b c6 bd
       -0.013769382 -0.027605368 0.0027991438 -0.096793756
0000f0 7d a9 96 3d 84 ea 80 bd 03 be 90 bd be f6 9c 3d
       0.07356546 -0.0629473 -0.07067492 0.0766425
000100 fd ee d5 bd d0 ce 7d be f9 61 15 3d 6e 5a fc 3d
       -0.10445974 -0.24785924 0.036470387 0.123219356
000110 64 42 43 bd d1 d3 38 be a7 05 cf 3d 55 74 f8 bb
       -0.047670737 -0.18049552 0.101085 -0.0075822272
000120 9d cc 1e 3d 31 45 eb 3a 81 8a 93 bb 5c 13 89 bd
       0.038769353 0.0017949698 -0.004502595 -0.06693146
000130 2e de 81 3e 5a 82 69 be b7 52 e0 3d 97 64 4e be
       0.25364822 -0.22803631 0.109532766 -0.2015556
000140 7d 7f ae bd 1b bf 54 bd 83 11 ec bc b4 0c 08 3d
       -0.0852041 -0.051940065 -0.028816944 0.03321524
000150 98 f5 c3 bc be 38 80 3d 63 af 66 3d d4 c0 87 3d
       -0.02392082 0.06260823 0.056319606 0.06628576
000160 2f 8d 80 be 98 28 4d 3e a2 63 a8 3d 9a 25 0d 3b
       -0.25107715 0.20035017 0.082221285 0.0021537305
000170 16 7f fb bb 77 c7 94 bc 55 2c 7d 3e c5 9d 6a 3d
       -0.007675062 -0.018161518 0.24723943 0.057279367
000180 a8 0a c3 bd 61 09 78 bd 4e 48 95 bd 2b bc e9 3c
       -0.09523517 -0.06055582 -0.07289182 0.028532108
000190 6c a5 9d 3d 69 26 9b bd f9 1f 43 be b0 fe 8a 3d
       0.07697567 -0.075756855 -0.19055165 0.06786859
0001a0 03 df 9a 3d 5f 0c ac bd 0f 06 8e 3d 8b ce f5 3d
       0.07562067 -0.08400797 0.06934749 0.120022856
0001b0 d9 d7 e8 3c bd 48 f1 3d 4b f5 2b bd 9c 5b 48 bc
       0.028423237 0.11781452 -0.041981976 -0.012228873
0001c0 c1 3a 90 bd b1 e1 1b be d2 fb 68 ba f8 c4 01 be
       -0.070424564 -0.15222813 -0.0008887622 -0.12672794
0001d0 e4 78 44 3d 04 ac 37 bd 99 f2 1e be cb d8 79 be
       0.047966853 -0.04484178 -0.15522231 -0.24399106
0001e0 e6 1b a4 bd a6 11 3f be 9c 63 d8 bd d1 92 0e 3e
       -0.08013134 -0.18659076 -0.10565874 0.13923194
0001f0 ad 36 9a be cb 36 7f be b9 6e 87 bd 2c d1 49 3e
       -0.3011984 -0.24923246 -0.066129155 0.19708699

dense_2/bias f4 [128]
000000 67 65 83 bd d8 a9 aa be 92 e9 83 be 82 50 45 be
       -0.06415825 -0.33332705 -0.25764138 -0.19268993
000010 e9 0b 27 be 8f d8 de be e4 3d cb be 07 01 0b bf
       -0.16313137 -0.43524596 -0.39695656 -0.5429844
000020 5b b0 7b be 05 50 d5 bd 75 ef e1 be c5 3d cc be
       -0.24578993 -0.10415653 -0.44128004 -0.39890876
000030 5d c4 26 3d 4a ef d9 bd 20 52 09 be 6e 9a 9e be
       0.04071461 -0.10641344 -0.13410234 -0.30977196
000040 8d df a5 be 3c 21 b7 bd 57 29 4a 3d 58 77 51 bc
       -0.32397118 -0.08941886 0.04935583 -0.012784801
000050 6c bd 9b be 79 8e a0 bc 4b cc 14 be bb 99 8b be
       -0.30417955 -0.019599186 -0.14531057 -0.27265725
000060 1d 65 a1 be 92 b7 49 bd b6 0a b5 be b2 80 2c bd
       -0.31522456 -0.049247332 -0.35359734 -0.04211492
000070 d1 04 93 be 03 70 95 be a0 81 ce be 09 c1 a2 be
       -0.28714612 -0.2918702 -0.4033327 -0.317879
000080 ff 70 9d be d4 78 cc bd be 80 be bc bd 3d 01 bf
       -0.30750272 -0.09983984 -0.023254748 -0.5048483
000090 34 86 f9 be 30 c1 a0 bd c0 d1 3a bd 4e 2d 9e 3d
       -0.487352 -0.078493476 -0.04561019 0.07723485
0000a0 c5 c7 86 be df 87 ec be 2d 30 99 be cb f1 c8 be
       -0.26324287 -0.4619741 -0.29919568 -0.39246973
0000b0 9c 0f 03 bf 25 7d 2f 3e fd 36 b6 bc fb 74 ac bd
       -0.51195693 0.17137583 -0.022243017 -0.0842075
0000c0 4e f8 6a 3d 17 a3 c6 be 67 2a f0 be 0a 2f 4f be
       0.057365708 -0.38796303 -0.4690735 -0.20232788
0000d0 9c 52 4e be ba 57 4d be 1c bf 8b be 46 ce 1d be
       -0.201487 -0.20052996 -0.27294242 -0.15410718
0000e0 d0 cd 81 be 61 7e d5 bd c4 db 4b bd 96 b8 b8 be
       -0.25352335 -0.104244955 -0.04977013 -0.36078328
0000f0 5f 58 47 be b6 47 aa bd a5 5e 52 be 8d 6f 96 be
       -0.19467305 -0.08314459 -0.20543917 -0.29381981
000100 13 a6 23 bd a2 ba cf be 41 57 a8 be ea 95 04 bf
       -0.039953303 -0.40572077 -0.3287907 -0.5179125
000110 a2 92 ae be 45 6d 17 3d 0d 46 0a be 3e 8e 03 bf
       -0.34096247 0.036969442 -0.13503285 -0.5138892
000120 87 36 0b bf 8c c6 82 bd c9 1c 04 bf d2 e8 9d be
       -0.5438008 -0.06385526 -0.5160642 -0.3084169
000130 db 94 93 be 80 72 a0 be ec 7c 08 be 53 9b da be
       -0.28824505 -0.31337357 -0.13328904 -0.42696628
000140 7d 6f 92 be cc 9b 19 be 86 8b b4 be 6c e5 c3 be
       -0.28600684 -0.15000838 -0.35262698 -0.38260972
000150 ce 70 83 be a7 fa 4c 3c a3 ef 0a be 86 17 ab be
       -0.25672 0.012510932 -0.13567977 -0.33416384
000160 27 d3 1b be d5 32 e2 be 10 63 9d be 95 8d 7f bc
       -0.15217267 -0.44179407 -0.3073964 -0.015597721
000170 4a 9c a9 be 1a b9 91 be 76 d5 3a be 35 6f 73 be
       -0.33127052 -0.28461534 -0.18245491 -0.23772891
000180 4e 05 9a be 94 ba 1f be ca bd d4 be 1a 11 ee be
       -0.30082172 -0.15598518 -0.41551048 -0.46497422
000190 d8 e7 62 be 12 0f ba be a1 76 e7 bd 0a 77 95 be
       -0.22158754 -0.36339623 -0.113019235 -0.29192382
0001a0 46 13 4d be 99 d9 38 be f3 8c 70 be 8d fa 52 be
       -0.20026883 -0.18051757 -0.23491268 -0.2060339
0001b0 e0 14 1c 3d 92 d2 b8 be 70 43 43 be 87 c2 17 bd
       0.038105845 -0.36098152 -0.19068694 -0.03705075
0001c0 44 e6 1d 3b d4 00 35 3e ee b4 a6 be cc 94 66 be
       0.0024093548 0.17676097 -0.32559913 -0.22517699
0001d0 8d c7 b2 be 94 73 98 be d9 5c 6e be 2e 71 a2 bd
       -0.3491787 -0.2977568 -0.23277606 -0.079317436
0001e0 fb f7 89 be 46 46 a8 be 4e 05 0d bd 6d e3 fa bd
       -0.26947007 -0.32866114 -0.034428887 -0.12250409
0001f0 3e cb 8f be 05 89 ac bc f3 de 39 be 0a a9 d9 be
       -0.2808475 -0.02106143 -0.18151455 -0.4251178

dense/bias f4 [32]
000000 23 de 49 bf 2a de df bf ca 2f 77 c0 1a b4 47 3f
       -0.7885458 -1.7489674 -3.8622918 0.7800919
000010 99 65 96 be b2 80 20 c0 83 8c b7 bf e6 f8 ed be
       -0.29374388 -2.507855 -1.4339756 -0.46478957
000020 06 46 17 c0 bc 7c ca bf 0e 0b 13 bf 5f c2 15 c0
       -2.363649 -1.5819316 -0.57438743 -2.3399885
000030 fa 8a 1f c0 92 6d 9d bd 2b 4f 0d c0 85 e7 a8 3d
       -2.4928575 -0.076869145 -2.207957 0.08247284
000040 1e 2e d9 3d fe 05 02 be 72 3a a3 3f 94 7d 14 3f
       0.10604499 -0.12697598 1.2752211 0.58004117
000050 a9 dc f1 bf 66 f4 5d bf dc 4a 08 bf b0 b1 98 3e
       -1.8895465 -0.8670105 -0.53239226 0.29823065
000060 9a 5b bc bf 88 24 fd 3e a5 2d 95 bf 31 eb 47 be
       -1.4715455 0.49441934 -1.1654555 -0.19523312
000070 4c cf e8 bf 11 9f 4f bf 14 2c a8 3f a4 56 bc bf
       -1.8188262 -0.8110209 1.3138452 -1.4713941

model/dense/MatMul f4 [32, 15]
000000 31 8a 93 be 3d a7 f9 be 63 4a dc be 50 99 6e be
       -0.2881637 -0.48760405 -0.43025503 -0.23300672
000010 1b 28 1a bd f1 4b b8 3e 76 56 31 bd 03 fc 85 3e
       -0.037635904 0.3599544 -0.043295346 0.26168832
000020 c4 cf 13 bf c7 8e fc 3e 65 62 96 3d 90 bf b4 bd
       -0.577389 0.4932768 0.07342986 -0.088256
000030 5f 40 85 3e 5f f0 c4 3d 24 4b f1 bd fa a0 68 be
       0.26025674 0.0961616 -0.1178191 -0.22717658
000040 5f ed d8 3e a2 7a 25 3e a7 61 16 3f 5d 08 9a 3e
       0.423686 0.16160062 0.58742756 0.30084506
000050 dd 45 ff be ed f6 c2 be af b1 21 be 3d a6 de 3d
       -0.4985799 -0.38079014 -0.15790437 0.10871551
000060 b7 b5 97 3d d3 f3 3d be 0b 46 0f 3e 41 fa 06 3e
       0.07407706 -0.18550043 0.13991563 0.13181402
000070 21 e1 19 3d e6 71 3f be 3d 4e 1c bf 55 9e 35 be
       0.037568215 -0.18695793 -0.6105688 -0.1773618
000080 99 77 c7 bd b5 1a 34 3f 70 0a ba 3e db 87 4a 3e
       -0.09739608 0.7035325 0.36336088 0.19778387
000090 b8 f0 34 3b 3c 2e 9d 3d 03 b0 a0 3e b5 91 9f 3e
       0.00276093 0.07674834 0.31384286 0.31165853
0000a0 c4 3f 81 be 72 be 44 be 99 2d c3 bd 4d d4 7f bc
       -0.25243962 -0.19213274 -0.095301814 -0.015614581
0000b0 66 a9 1d 3e 98 e6 55 3e cc ff 0b be ff a3 a1 3d
       0.15396652 0.20888746 -0.13671798 0.07892608
0000c0 1e 28 b4 3e 03 40 2f 3f 4d ba 00 be af 07 8f 3d
       0.35186857 0.6845705 -0.12571068 0.069838874
0000d0 56 d0 4f 3e aa 1c 59 3d 6d aa 65 3d 0f e7 e7 be
       0.20294318 0.05300585 0.056070734 -0.4529347
0000e0 96 22 b6 bd b8 36 cf bd 65 d8 01 bf 54 ac b4 bc
       -0.088933155 -0.10117859 -0.50720817 -0.022054829
0000f0 72 40 53 3e 05 45 83 be 31 fc 6a 3d 26 7b 20 3e
       0.20630053 -0.25638595 0.057369415 0.15671977
000100 82 81 46 bf da b4 f7 be 02 16 a6 3e 55 00 75 be
       -0.77541363 -0.48380166 0.32438666 -0.23925908
000110 c5 78 22 3e f4 30 e0 bd c8 40 62 be 8c c5 e8 be
       0.15866382 -0.10946837 -0.22095025 -0.45463216
000120 39 ee 37 3d 6a 1f 89 3e 79 47 06 3f f7 26 f8 bd
       0.04490492 0.2678178 0.5245281 -0.12116807
000130 91 57 50 3e 44 97 34 bf 4c 9a c6 be ff 35 ea 3e
       0.20345904 -0.70543313 -0.38789594 0.4574432
000140 3f 22 65 be 4a 97 a9 3e e4 ca cd be 4c a2 61 bd
       -0.22376345 0.33123237 -0.40193856 -0.05508642
000150 bc 4a fe 3d 7d b7 cf 3e a5 95 f5 3c aa d0 6a 3e
       0.12416598 0.40569678 0.029978583 0.22931162
000160 0c a5 90 be 26 99 a2 bd b6 59 9f be f1 e3 f4 be
       -0.2825092 -0.07939367 -0.31123132 -0.47830155
000170 0c 5d 3e be 55 61 89 be c9 3f 07 3e cb 53 2b bf
       -0.18590182 -0.2683207 0.13207926 -0.6692473
000180 bb fd 84 3e e0 e3 e9 3d dd 1f d0 3d 59 a2 ae 3e
       0.2597483 0.11420417 0.101623274 0.34108236
000190 25 82 36 3e 10 07 2c bd 82 90 5e 3e 36 cd 08 3d
       0.17823084 -0.041998923 0.21734813 0.03339883
0001a0 01 a7 12 bf 50 b2 32 bf 9b 32 d3 be 7b b1 cb be
       -0.5728608 -0.69803333 -0.41249546 -0.39783844
0001b0 a1 62 b5 3e cf 67 f1 3d ad 8c 1f be d5 e2 46 be
       0.3542681 0.11787378 -0.15581007 -0.19422467
0001c0 b5 64 ad 3e 6a 76 65 3d 2e d8 ce 3e 38 31 3d be
       0.33865896 0.05602113 0.40399307 -0.18475807
0001d0 bd c7 15 be bd 4f ee bb 6e 7c c5 3d 97 a6 b0 3d
       -0.14626975 -0.007272689 0.09642874 0.086255245
0001e0 2b 93 48 be c0 4d 44 3f af 58 82 bd 0f 2c 0e 3d
       -0.1958739 0.7668114 -0.06364571 0.034709986
0001f0 6d ad 44 3e 67 f4 af be c7 90 7f 3e 27 a5 8f 3e
       0.19206782 -0.34366152 0.24957572 0.2805569
000200 11 f8 1b 3d 3a a5 d8 be 5b 96 ce be f5 a1 80 be
       0.03807837 -0.42313558 -0.40349087 -0.25123563
000210 7e a9 97 3e 43 7a 0f 3e 96 b2 6a be 0f a7 d5 bd
       0.296215 0.14011483 -0.22919688 -0.104322545
000220 d7 18 cd bc f1 4e 08 3d db 7e e3 3e 74 e5 8f 3e
       -0.025036259 0.03327841 0.4443272 0.28104746
000230 7a bf 26 be a2 cf 4e bf c3 e7 64 be 6f 82 60 3d
       -0.1628398 -0.8078557 -0.22354035 0.05481189
000240 6d c9 b0 3e 5b 8d 91 bd c5 e5 a1 3c 8e a5 3d 3e
       0.34528676 -0.071070395 0.019762883 0.18520185
000250 22 1f 08 3e f5 c4 20 3d e3 b5 d5 3e 11 a1 7b 3c
       0.13293126 0.039250333 0.4174033 0.015358225
000260 e9 2b 2b 3d 03 49 30 be 2c c0 46 be 75 ba 07 bf
       0.041789923 -0.17215352 -0.19409245 -0.53018886
000270 d1 87 6b bf e6 25 d9 3e de 56 e9 bd 02 64 25 be
       -0.92004114 0.42411727 -0.11393522 -0.16151431
000280 be e4 89 3e 17 be 8e be 5c 50 3a bd 41 f2 03 3e
       0.2693233 -0.27879402 -0.045486793 0.12885381
000290 6d 2a d2 bd eb 12 a4 bd 8e 31 4b be 37 8e 15 bd
       -0.10261998 -0.08011421 -0.19843122 -0.03651258
0002a0 d5 7d 99 bd 24 3f dd 3e 3e 63 f2 bc 62 cf 64 be
       -0.07494704 0.43212235 -0.029588338 -0.22344735
0002b0 98 66 26 3e e3 77 8e bd 93 10 72 be bf 56 ec be
       0.16250074 -0.0695646 -0.23639135 -0.46159932
0002c0 8e ce 2d be be 9e f5 3e e5 8d 7b 3e 54 17 9d 3e
       -0.16973326 0.47972673 0.24565847 0.3068186
0002d0 4b 31 ba be 42 f0 07 3e 0a c4 64 bd 39 13 f3 3e
       -0.36365733 0.13275245 -0.05585102 0.47475603
0002e0 65 01 3c 3e b4 4b 15 be ba 86 da 3c 66 1c fb be
       0.18359907 -0.1457966 0.02667557 -0.49045104
0002f0 e2 d7 d6 3d 7b b2 93 3e d4 57 95 3e 8b b8 83 3e
       0.10490395 0.28847107 0.2916857 0.25726733
000300 d5 c7 8f be b2 e9 62 3d f4 52 81 be e8 17 08 be
       -0.28082147 0.05539865 -0.252586 -0.1329037
000310 9d 46 08 3e fb 67 9e 3d 9c 6f 84 bf 4c 22 e0 3d
       0.13308187 0.077346765 -1.034656 0.109440416
000320 c4 73 33 3e 20 de ea 3e f5 69 9b bd 26 f0 4c be
       0.1752463 0.45872593 -0.07588569 -0.20013484
000330 ce 18 61 be fd c3 dd bd 2f ee 0d 3f 60 93 2f be
       -0.21982118 -0.108283974 0.55441564 -0.17146063
000340 6d e5 5e 3e 8c 10 c9 3b 03 84 41 3e 88 8a ec 3e
       0.21767206 0.0061360057 0.18898015 0.4619944
000350 3f f8 f3 3e b8 c8 9f 3e 73 9a 61 3e cf 32 f9 be
       0.47650334 0.31207824 0.22031574 -0.48671576
000360 79 9d fb be 78 30 a2 3e 9b 4c af 3e e9 a8 b3 be
       -0.4914358 0.31677604 0.34238133 -0.35089806
000370 c8 d7 8c be b3 64 02 be 57 be fd 3d 86 cc 83 3d
       -0.27508378 -0.12733726 0.1238982 0.06435494
000380 01 15 9c be fa f8 07 3e 8e 7d e5 bd c1 cc 4d 3d
       -0.30484775 0.13278571 -0.11205588 0.050244097
000390 98 42 0c 3f 68 db b9 3e 17 4f 98 be 84 d9 30 bf
       0.54789114 0.36300206 -0.2974784 -0.690819
0003a0 5b 28 99 be 55 aa 8c 3e 1f 88 21 3e 67 81 cf 3d
       -0.299136 0.27473703 0.15774582 0.101321034
0003b0 25 51 2e be 5c be 9c be ba 88 bc 3c cf ac 82 bd
       -0.17023142 -0.30613983 0.023014415 -0.06380617
0003c0 d5 08 85 3d b4 70 14 3e 89 2a 80 3b 30 a2 10 bf
       0.06495825 0.14496118 0.0039113206 -0.5649748
0003d0 ab 83 8a 3d 89 e9 87 3e 07 d1 28 3e 24 7c 92 3e
       0.06763395 0.2654536 0.16485988 0.28610337
0003e0 b6 6a b6 3d e0 0b 79 3d 9f a1 70 3d 3b 5f e7 be
       0.08907072 0.06080234 0.058747884 -0.45189843
0003f0 1e 3c 2e bf 07 26 75 be b8 58 11 3f 88 f5 e0 3d
       -0.6806048 -0.23940288 0.56776 0.10984331

model/dense_2/MatMul f4 [128, 64]
000000 ec 76 04 bc 7c 6e 09 be 41 ba 0e ba 9e 9c 50 be
       -0.008084994 -0.13421053 -0.0005444624 -0.20372245
000010 d9 5c b5 3c f3 08 5b 3e 23 b3 98 be a9 b2 77 3e
       0.022139 0.21390133 -0.2982417 0.24189247
000020 f1 94 8a 3e 9a 32 85 be cc 17 9e 3e 2d 7f 5b be
       0.27066758 -0.26015168 0.3087753 -0.21435232
000030 23 6f 68 3c ba 15 c7 be f0 d8 d1 be 87 7a 00 3f
       0.014186653 -0.38883764 -0.40985823 0.5018696
000040 34 54 d1 3d 6d 84 34 3e 58 01 4e 3e 31 97 f5 bd
       0.102211386 0.17628641 0.201177 -0.11991728
000050 96 50 ff 3c 9e 6f 98 3e f0 dd e0 3d a1 a3 49 3e
       0.031166356 0.29772657 0.10979831 0.19691326
000060 ca 1f 1e be cc e6 9e be 05 10 07 3e a5 01 cd 3c
       -0.15441814 -0.3103546 0.13189705 0.025025198
000070 a4 9e 20 bf 40 4e 3f be eb 38 64 3e a5 7f 12 3e
       -0.62742066 -0.18682194 0.22287337 0.14306505
000080 0a 92 8d 3e f9 eb a3 be bc a4 99 be 2e 1d 4a be
       0.2765048 -0.3201597 -0.30008495 -0.19737694
000090 db f4 1d 3e d9 8b ce 3d 51 20 ab 3e 90 3d b3 3d
       0.15425436 0.100852676 0.33423093 0.087519765
0000a0 f0 98 74 bd a6 9f 61 3e b7 06 df 3e f2 fa 8c 3d
       -0.059716165 0.22033557 0.4355981 0.068838015
0000b0 26 55 25 bf fe 47 a6 3d 20 63 a4 bc 30 2c e1 bc
       -0.6458305 0.081192 -0.020066798 -0.02748689
0000c0 93 ba 87 3e 87 80 dc 3d b0 7b 34 3e fb f9 2e 3e
       0.26509532 0.10766702 0.17625308 0.17087547
0000d0 0d d1 a1 bd 20 dc 71 be e8 dc 33 3e 6a 60 16 3e
       -0.079012014 -0.23619127 0.17564738 0.14685217
0000e0 99 3b 22 bd e3 ad b7 bc 8a fd 0a 3e b1 01 cc 3e
       -0.039607618 -0.022421783 0.1357328 0.3984504
0000f0 81 92 50 bd a1 39 93 be 77 6d 49 3e f9 6b 8c bd
       -0.050920967 -0.28754905 0.19670664 -0.06856532
000100 51 f8 29 3d 3e cd 56 3f 75 b3 5e be ee 0c 90 bd
       0.04149658 0.83906925 -0.21748145 -0.07033716
000110 e5 81 8e be fb 31 16 be c0 01 a9 bd 72 f8 dd bd
       -0.27833477 -0.14667504 -0.08252287 -0.10838403
000120 2e d2 c3 3d 3c fc 1c bd 16 bd 2a 3e 4b 07 20 3e
       0.09561573 -0.038326487 0.16673693 0.15627782
000130 25 4e 0f 3e 4d 1f c5 bd 15 4a 91 bd af e0 52 be
       0.13994654 -0.09625111 -0.07094208 -0.20593522
000140 a1 2e 07 be 50 9a c9 3d 93 77 16 3e a5 20 99 3e
       -0.13201381 0.09843886 0.14694051 0.29907718
000150 61 4c 58 be 5e c2 99 bd ab 05 7d be 9a dc 02 be
       -0.21122886 -0.07507776 -0.24709193 -0.12779465
000160 1f 56 bf bc 3a 72 dd 3d 47 2a 34 be a7 63 03 3e
       -0.023356495 0.108128026 -0.17594253 0.12830983
000170 9f 3a e4 3d f5 29 95 be be 83 a3 bc 52 ca a9 bd
       0.111439936 -0.29133573 -0.01996028 -0.08290543
000180 e2 b7 ad bd a7 d8 45 3d bf 59 d1 3d 85 ac 8b be
       -0.084823385 0.04830232 0.10222196 -0.2728006
000190 06 f4 08 be 61 d7 1a 3d 2c 46 a6 3d 1d 98 81 3e
       -0.13374338 0.037803058 0.08118853 0.25311366
0001a0 f1 cf fa 3d cc cd a1 be 42 7d c2 bd a4 53 a7 be
       0.12246693 -0.31602323 -0.09496547 -0.32681
0001b0 0e 88 9b 3b 2e 60 2e 3e 65 25 61 bd 8c d6 1e bf
       0.0047464436 0.17028877 -0.054967303 -0.6204612
0001c0 ea db 54 be f1 cb 93 be 93 6a 95 be 35 63 db bb
       -0.20787016 -0.28866532 -0.29182872 -0.006695176
0001d0 45 73 49 3e b3 f8 9e 3e c5 ee 1d be 69 99 5b bc
       0.19672878 0.31049117 -0.15423115 -0.013403275
0001e0 1e fe 04 be 4f f4 8f be 90 d1 2d 3f c9 ff 5b be
       -0.12987563 -0.2811608 0.6789789 -0.21484293
0001f0 58 94 70 3e a6 ba cc bd c8 6a 82 bd 56 68 d8 3d
       0.23494089 -0.09996538 -0.06368023 0.105667755
000200 0c dc cf 3e 2f a7 18 3e 2b 6b d0 bd 6b a7 fe 3d
       0.4059757 0.14907525 -0.10176691 0.12434276
000210 6f cc 32 3e d4 24 f0 bc 82 4f 5d 3d 3b ce b7 bc
       0.17460798 -0.029314436 0.054030903 -0.022437206
000220 d0 f9 28 be a7 95 52 3e 71 56 a0 3c 46 e0 1f be
       -0.16501546 0.205649 0.019572468 -0.15612897
000230 a8 80 00 be 8f 38 b3 3e ff aa 2d 3e 56 af b0 3e
       -0.12549078 0.35004088 0.16959761 0.3450877
000240 ed 88 7c 3e 5b 51 28 3d fd cb 22 3e ee e0 cd be
       0.24661608 0.04109321 0.15898128 -0.4021067
000250 f6 ae b8 3d fb 53 42 bd f2 b3 59 bf 93 ea 92 3e
       0.09017746 -0.04744337 -0.850402 0.2869459
000260 d0 1d ba be d4 67 1a 3e 0f 68 1e 3e 71 5a 1b 3e
       -0.3635087 0.1507867 0.15469383 0.1517122
000270 e6 a3 a5 3d e4 3f bc be c4 bb 20 3e 5c 4e 84 be
       0.08087902 -0.36767495 0.15696627 -0.25841033
000280 86 1b af 3e c3 87 1a be 4a ad 83 3e a7 2f 23 be
       0.34200686 -0.15090851 0.25718147 -0.15936147
000290 b6 33 be bb 05 e8 88 3d 6d 7a 06 be de cb b5 3c
       -0.0058045043 0.06684879 -0.13132639 0.022191938
0002a0 93 66 9f 3e 6c 83 d3 be 38 f4 f4 bd 05 b2 75 bc
       0.31132945 -0.41311204 -0.119606435 -0.014996056
0002b0 d6 d1 5a be 34 b0 21 bd 37 31 a8 3d 60 12 86 3e
       -0.21369109 -0.03947468 0.08212512 0.26185894
0002c0 ef 42 11 3d df ed 5a 3c 23 e2 8d 3e 62 7e 59 be
       0.035464223 0.013362377 0.2771159 -0.21239617
0002d0 b9 09 7e 3e 4a 4e 50 be 31 8e 05 be 43 b6 14 be
       0.24808396 -0.20342365 -0.13042523 -0.14522652
0002e0 21 60 0c be 5f fc ea bd fd d6 db bd 50 95 7d be
       -0.13708545 -0.11473917 -0.10734365 -0.2476399
0002f0 50 17 ba be 13 f2 ab bd b0 0b e3 3c 09 e1 b6 be
       -0.3634591 -0.08395781 0.027715534 -0.35718563
000300 6c d9 81 bd 70 55 06 bd e8 1d 0e 3e f3 2f 5f be
       -0.06340298 -0.032796323 0.13878596 -0.21795635
000310 87 69 fa 3c b1 8a 96 bc 8f fc 3a 3e 87 d4 d6 be
       0.030567897 -0.01837668 0.18260406 -0.4195902
000320 3b 0d 16 be 95 3b a3 be 77 b6 39 3e 5c 3c 87 be
       -0.14653485 -0.31881395 0.18136011 -0.26413238
000330 58 71 27 be f1 74 17 3e 8d 9d 92 be d6 c4 33 3e
       -0.16351831 0.14790703 -0.28635827 0.17555556
000340 31 58 a5 3d 06 d3 80 bd 7c b7 4f be 7e 5f 09 be
       0.08073462 -0.062902495 -0.20284837 -0.13415334
000350 c4 e1 7e 3d d0 cd ec 3d cb 8c ca be 2f 99 9d be
       0.062227026 0.11562693 -0.39560542 -0.30780932
000360 14 c1 8f bd 17 08 ed 3d 55 89 a9 bd 80 d6 7d 3d
       -0.070192486 0.11573809 -0.08278147 0.06197214
000370 96 45 75 3d 9a 8b 1b be 9c 08 7f be 2e 32 b4 be
       0.059880815 -0.15189973 -0.24905628 -0.35194534
000380 ff 23 96 be de 0d 0d bd 79 da 82 be b2 db e6 bd
       -0.29324338 -0.034437053 -0.25557306 -0.11272372
000390 12 41 b9 3c 63 fd 8d be 51 e3 22 be e3 d1 23 3d
       0.022614036 -0.2773238 -0.15907027 0.039995085
0003a0 ac 6e 7c bd 92 f0 ef 3b c1 98 37 be 7d 8f aa be
       -0.061628982 0.0073223794 -0.17929365 -0.33312598
0003b0 f8 2b d1 bd 0c be 43 3e 54 ae 84 be b5 f4 84 be
       -0.102134645 0.19115466 -0.25914252 -0.25967947
0003c0 c3 5d 58 bd 50 e9 3c be c8 8b 1c be 34 3e 5d be
       -0.052823793 -0.18448377 -0.15287697 -0.2160576
0003d0 c8 40 c1 be c5 ef 34 be 49 85 5c be fe e1 c9 3d
       -0.37744737 -0.1766959 -0.21535219 0.09857558
0003e0 40 02 84 be 34 aa 26 3e cb 50 9e bd b6 bd 79 be
       -0.25782967 0.16275865 -0.07730254 -0.24388775
0003f0 53 3d 41 3e f2 ce e7 bd c9 31 da be 8f 9c e0 bd
       0.1887105 -0.113187686 -0.42616108 -0.10967361

model/dense_4/MatMul f4 [128, 256]
000000 35 aa 9c 3c 1f 0f 34 3d 2a 73 e7 bd d6 48 7f 3e
       0.01912413 0.043959733 -0.11301263 0.24930128
000010 63 f0 07 3d 93 fd f5 bd 1d 8f 16 3e 29 a7 06 be
       0.033188235 -0.12011256 0.14703031 -0.13149704
000020 36 52 31 3e 3f f2 bb bd d8 61 f1 bd a6 04 3e be
       0.17316517 -0.09177064 -0.1178624 -0.1855646
000030 59 c4 19 3d ca 97 a7 3d 81 62 b4 3d 48 14 3a be
       0.037540767 0.08183248 0.08807851 -0.18171799
000040 e9 9f 26 bd b6 62 66 be 95 92 26 bd 62 0c 8e 3c
       -0.040679846 -0.22498593 -0.040667135 0.017339889
000050 aa 50 f4 bd 27 ec 2e be 7f c5 82 3c 5e 18 ba bd
       -0.11929448 -0.17082272 0.015963314 -0.09086679
000060 60 c1 c9 bd 85 77 a3 3a 02 06 82 bc e5 56 21 3e
       -0.098513365 0.0012471533 -0.015872005 0.15755804
000070 ba e4 90 bd c2 f7 f0 bd 95 b7 9f 3c 05 2c 20 3e
       -0.07074876 -0.11766006 0.019496718 0.15641792
000080 39 87 b4 3c 78 5e 0a be af 42 0c be 32 d2 86 bd
       0.022037135 -0.135126 -0.13697313 -0.0658306
000090 70 21 60 3e 2c e9 64 bd 63 35 93 3d c3 26 67 3e
       0.21887755 -0.055886433 0.07187917 0.2257338
0000a0 8e 3d 14 be 55 af 49 3d 98 d5 44 3e 85 a8 9d bd
       -0.14476606 0.049239475 0.19222105 -0.07698158
0000b0 75 0e fd bb 9a 2b d8 3d 7c 9c 91 be b9 1f 98 3d
       -0.0077226707 0.10555191 -0.284397 0.074279256
0000c0 3a 29 cc 3a bc 05 5c be 42 50 61 ba a2 3f 42 3d
       0.0015576251 -0.21486562 -0.0008595028 0.047423966
0000d0 90 ad ad bb 20 ca e8 3d 0f 0c f6 3d d4 3b b4 bd
       -0.0053002313 0.11366677 0.12014019 -0.08800474
0000e0 ce d0 af bd 31 26 6e 3d ac 40 1e be bd 34 89 bd
       -0.08584748 0.05814189 -0.15454358 -0.06699512
0000f0 d3 d1 e7 be c9 fd cd 3e 00 4c 60 3c 3c e5 0e bd
       -0.4527727 0.40232685 0.013689995 -0.034886584
000100 c4 8d aa bd 69 3b 59 be 65 5a 83 3d c6 e6 05 bd
       -0.08327821 -0.2121407 0.06413726 -0.032690786
000110 b2 dc 8a be 0d dc 71 bd fa fb 3f 3e 32 68 83 3c
       -0.27121502 -0.059047747 0.18748465 0.016040895
000120 e7 54 00 3d cb 89 18 bc ed a3 0c bd 7d 5d 40 be
       0.03133097 -0.009310196 -0.03433602 -0.18785663
000130 3d 38 a5 3e 24 bf 3d 3e f4 ec 96 3d 26 b2 65 be
       0.3226947 0.18529946 0.07369414 -0.2243124
000140 a7 21 04 bd df df 0f bd 1c aa fe 3c a8 4a a6 3c
       -0.032258656 -0.03512561 0.031086974 0.02029927
000150 91 16 f5 bd d9 7f 87 be 7e 5d 11 3e a9 6d 1c be
       -0.11967195 -0.26464728 0.1419582 -0.15276207
000160 c2 9c 52 be ee 5f a8 3e ea 8d 8f bd c9 b6 57 be
       -0.20567611 0.3288569 -0.0700949 -0.21065821
000170 7c 01 41 3d 20 d0 87 3d c5 b2 27 3d a9 17 08 3e
       0.047120556 0.066314936 0.040941972 0.13290276
000180 6d cf a9 3d 60 08 06 be 30 5c ca 3c 17 d8 33 be
       0.082915165 -0.13089132 0.024702162 -0.175629
000190 ce a1 67 be 1e dc 72 bd 71 f8 9e bc 16 2e 01 be
       -0.22620317 -0.05929195 -0.019405575 -0.12615237
0001a0 2f b5 95 3c f3 9f f2 bd 47 f9 37 be 21 89 c2 bc
       0.018274872 -0.11846914 -0.17966186 -0.023747029
0001b0 44 57 03 3c 8f 5d 89 bd 34 02 8f bd 5b 0c 22 be
       0.008016411 -0.06707298 -0.06982842 -0.15825026
0001c0 d4 8c 55 3e 15 e7 35 be 7d f0 15 be ac 0a ee bc
       0.20854503 -0.17763932 -0.1464252 -0.029057823
0001d0 e5 8e 88 be 66 1f 88 bd 3e 2d 04 be 25 2d 34 be
       -0.2667152 -0.06646614 -0.12907884 -0.17595346
0001e0 60 6a 93 3d 70 61 fd 3d d7 81 6d 3e b3 87 19 3d
       0.07198024 0.123721 0.23194061 0.03748293
0001f0 94 9a 07 be fd 9e 9a b9 ec 70 59 bd eb 05 8c bd
       -0.1324256 -0.00029491624 -0.053086206 -0.06837066
000200 b3 c9 ab bc c4 e9 7e 3d 82 21 79 bd 25 14 a1 3d
       -0.020970201 0.062234655 -0.06082297 0.078651704
000210 fa fd d1 3b c0 85 07 be 6f 4a 63 3d e6 f6 5f be
       0.00640845 -0.13234615 0.055490907 -0.21871528
000220 d3 4c f4 bd 27 78 92 3d 04 e1 f9 3c b0 7f 19 3d
       -0.119287156 0.071518235 0.030502804 0.037475288
000230 3d 35 55 be 6f 84 15 3e 4a d0 af bd 12 1e d7 3b
       -0.2082109 0.146013 -0.0858465 0.006564864
000240 dc 6a 13 3e 71 20 ba bd 1b f3 32 3e 24 bf 75 bd
       0.14396232 -0.09088219 0.1747555 -0.05999674
000250 e0 e9 6c be db d2 da 3d 4a 2a f0 bb 77 76 2b be
       -0.23136091 0.10684749 -0.00732926 -0.1674441
000260 ff 13 5b bd 03 9c 17 bd 46 3f 2e bd 36 ca 67 3d
       -0.053485867 -0.03701402 -0.04254081 0.056589328
000270 2b fd 39 bd aa 30 92 bd 25 92 6c be e6 ad 1f bc
       -0.045407455 -0.07138188 -0.23102625 -0.00974605
000280 b4 18 96 3d ce e1 89 be f3 5f 4e be 2e c9 62 3e
       0.073289305 -0.26930088 -0.20153789 0.22147056
000290 aa a1 cf 3d 22 dd a5 bd dc 3b dc bd d6 00 83 be
       0.10138257 -0.08098818 -0.10753605 -0.25586575
0002a0 95 bc 51 be de ce b9 3d 40 77 df 3c 10 52 c7 bd
       -0.20482095 0.0907266 0.027278543 -0.09732449
0002b0 ff 0e 50 bd 96 95 4b 3d 43 ee b2 3d d1 97 16 3d
       -0.05079555 0.049703203 0.08736851 0.036765877
0002c0 65 a4 32 3e 03 00 ff bd 4e ce 85 3d 6d 1f 19 be
       0.17445524 -0.12451174 0.0653349 -0.14953394
0002d0 da 16 3b bc 91 e7 3a bd 1d d3 ba 3b fd 64 2c be
       -0.011419022 -0.045630995 0.005701436 -0.16835399
0002e0 6f ec a7 3d ab 83 14 be d2 8e 5f be 8c cb 30 be
       0.08199393 -0.14503352 -0.21831825 -0.17265147
0002f0 51 d0 cf bd ee 4c 98 3e df 5d 74 bd 69 bb 42 3d
       -0.10147155 0.29746193 -0.059659835 0.04754201
000300 37 a6 60 3d 6d 12 04 3b bd 8d 16 3d 32 9f 06 be
       0.054846015 0.0020152584 0.036756266 -0.13146666
000310 32 01 34 3d 1b 14 18 be 38 fd 4c bd 49 4c 0c 3d
       0.043946452 -0.1485142 -0.050046176 0.03425244
000320 9a a6 ff 3d 0f 05 9f bd 82 d9 c1 be c3 ba 60 bc
       0.124829486 -0.07764637 -0.37861258 -0.013716402
000330 e2 f9 1e 3c 94 c8 0e bd c9 80 b9 bb 94 e9 44 bd
       0.009703131 -0.034859255 -0.0056611043 -0.04807432
000340 f7 33 16 be 08 ae 24 bd 8c c6 9c 3d d3 05 85 bd
       -0.1466826 -0.04020503 0.07655057 -0.064952515
000350 31 eb 94 3d 12 84 b9 bd a5 69 68 be 20 85 fc bd
       0.07271422 -0.090583935 -0.2269655 -0.12330079
000360 7e 4e a2 3c 35 40 1f be e9 d5 a0 bd 45 9d c0 bd
       0.019812819 -0.15551837 -0.078533 -0.09404997
000370 27 b7 14 be 32 75 f7 bc a4 b9 0c bd e6 5c c1 bd
       -0.14522992 -0.03020725 -0.03435673 -0.09441547
000380 2e c6 ee 3d b4 02 85 be fb 14 0e be be 30 f6 3c
       0.116588935 -0.25978625 -0.13875191 0.030052539
000390 81 ea 14 be a7 94 86 3d f3 2e 30 3e 13 f6 45 3e
       -0.14542581 0.06571322 0.1720541 0.19332151
0003a0 38 59 54 be 14 e2 9a bd f2 a9 25 be 2d 11 a3 3b
       -0.20737159 -0.07562652 -0.1617811 0.0049764127
0003b0 99 d2 1b 3d 5c 41 a0 3c de d2 55 be 85 6a 70 bd
       0.03804264 0.019562416 -0.2088122 -0.058695335
0003c0 a4 12 96 bd c9 c7 d5 3d 4a 0e d6 3d a8 2c 26 3e
       -0.07327774 0.104384966 0.10451944 0.16227973
0003d0 b8 5a b1 3d fb 86 77 bb da a3 2c 3c 27 28 84 3d
       0.08659881 -0.0037769664 0.010537112 0.06452971
0003e0 12 ae 4e be 34 c1 22 be 99 92 bf bd e6 68 87 be
       -0.2018359 -0.15894014 -0.09354133 -0.2644722
0003f0 fa 67 c0 3d 29 5a 9a bd 51 9c a2 3d 5c f8 f2 3d
       0.09394832 -0.07536728 0.07939971 0.11863777

model/dense_5/MatMul f4 [64, 128]
000000 81 16 66 3d ef 4d e0 bb 32 7b 83 bc 86 c7 0b 3d
       0.056173805 -0.006845228 -0.016049955 0.034125827
000010 aa 54 5d be 5c 42 37 be 9b e7 40 bd d2 38 e9 3d
       -0.21614328 -0.17896408 -0.047095876 0.11387791
000020 c1 bd b8 3d de 56 0e bd 58 9c bf 3d ba 94 95 3e
       0.09020568 -0.03475081 0.09355992 0.29215032
000030 9f ab 09 bd e1 1c f8 3d 38 c1 79 3e 18 5e 3d 3e
       -0.033610936 0.12114883 0.24390113 0.18492925
000040 9a 89 7c bc 95 30 65 3d 47 16 d0 bd 74 62 2a be
       -0.015413666 0.055954535 -0.10160499 -0.1663912
000050 a8 05 6b 3e 22 82 65 bd f3 a4 5d 3b 73 2c 1c be
       0.22951376 -0.056032307 0.0033820241 -0.15251331
000060 75 10 06 3d 91 28 49 bd 15 e6 0d 3d bb e2 17 3e
       0.03273054 -0.049110953 0.03464325 0.14832585
000070 e7 70 96 3d 3e de 36 3e bc d7 44 bc d4 1b 56 3e
       0.07345753 0.17858216 -0.012014326 0.20909053
000080 d4 10 bd be 51 25 88 bd a7 58 8a 3c 8e 79 da be
       -0.369269 -0.066477425 0.016887976 -0.42670864
000090 47 7a 69 be c0 f9 a0 bc e2 0c 17 bd 19 9f 43 3e
       -0.22800551 -0.01965034 -0.03687752 0.1910366
0000a0 f0 68 28 bd d9 28 e7 3d f0 70 4f 3e 19 db 32 be
       -0.0411157 0.11287088 0.20257926 -0.17466392
0000b0 6f 72 67 be 95 39 92 3e 61 ee d3 bc ad 8e a9 be
       -0.22602247 0.28559557 -0.025870504 -0.33116665
0000c0 ba cc 07 bd b0 cc 24 be c8 a4 92 3e 6d b4 34 bc
       -0.033154227 -0.16093707 0.28641343 -0.011029345
0000d0 0b f1 df 3e 05 ab 3f be 9b a5 20 be 4e 45 4c 3d
       0.4373859 -0.18717583 -0.15688173 0.04987078
0000e0 cf 99 17 bd 11 29 c4 be 24 46 24 be d5 4e 5a 3e
       -0.037011918 -0.3831258 -0.16042382 0.21319135
0000f0 a4 85 42 3e b2 ba b4 be da 39 a7 3b 8a 45 6e 3d
       0.18996292 -0.35298687 0.005103332 0.058171786
000100 3c 07 01 be 28 53 5b bd 91 70 a4 be f3 88 62 bd
       -0.12600416 -0.0535461 -0.3211713 -0.055306386
000110 ce 3d 4b 3d 75 78 67 3d bb 9f e7 bd 3e bf 20 be
       0.04961949 0.05651136 -0.11309763 -0.15697953
000120 64 6c 81 3e f5 a0 bb be a9 bc 95 3e 39 f6 68 be
       0.25278008 -0.36646238 0.292455 -0.22750176
000130 2e 41 4b 3e 9a 00 c2 3c 92 37 d5 3d 67 19 ff bd
       0.19849083 0.023681927 0.1041099 -0.12456017
000140 9c 7a fa 3d 82 4d aa be 6f 93 89 be 92 1a d8 3e
       0.12230417 -0.3326226 -0.26870295 0.42207772
000150 93 df 7e 3d 54 1b 88 bd fe 05 0f 3b 1e a5 90 bd
       0.062224936 -0.066458374 0.002182364 -0.070627436
000160 de b4 1f 3e da 6c 86 bd 79 9b b7 3d 17 66 89 bc
       0.15596339 -0.065637305 0.08965201 -0.016772313
000170 9a f4 4c 3c 82 b0 2b be 7b f8 83 ba 06 7a 18 3e
       0.012509489 -0.16766551 -0.001006856 0.14890298
000180 4f ac f9 bd df 71 d2 bd 9a 06 67 be 5d 47 39 bd
       -0.121910684 -0.102756254 -0.22561112 -0.045234073
000190 bd 1d 0d be 6f 72 62 3d 54 9b 6b be 12 62 2d 3d
       -0.13780876 0.055284914 -0.23008472 0.042329855
0001a0 8f 39 2e 3e 1b c0 3a be b2 96 39 3d f5 0c b0 be
       0.17014144 -0.18237345 0.04530973 -0.34384885
0001b0 8d 38 93 be f1 23 d5 3d 2b 01 01 be 5d 1d f7 bd
       -0.28754082 0.10407246 -0.12598102 -0.120661475
0001c0 bd cf 6d 3d ba eb ba be c5 ad 6d be 60 ec a4 bd
       0.058059443 -0.3650797 -0.23210819 -0.080528975
0001d0 a8 b7 34 3e fc 61 c3 3c a8 3e 35 be 74 25 de 3d
       0.17648184 0.023850434 -0.17699683 0.10846987
0001e0 1b 06 9f bd df 52 19 be 6f 49 e9 3d fe d1 46 3d
       -0.077648364 -0.14973019 0.113909595 0.048540108
0001f0 30 bf 5c 3e 51 9e ba 3c c0 7b f3 3d 35 de f2 bd
       0.21557307 0.02278057 0.11888838 -0.11858789
000200 d1 22 8b 3d 22 9a 79 be 89 30 f9 bc cc 03 a5 bd
       0.0679375 -0.24375203 -0.030418651 -0.08057365
000210 51 f1 0e be 65 91 c1 3d b6 2b a7 3d 9b f3 25 3d
       -0.13959242 0.0945156 0.08162634 0.040515523
000220 9b 10 9b 3d 1b 3c b4 3d 2c 56 9c be 90 21 31 3d
       0.075715266 0.08800527 -0.30534494 0.0432449
000230 94 f4 b1 3b 7a fc a4 bd 0f 18 b4 3c 15 f0 e2 bc
       0.0054307673 -0.080559686 0.021984128 -0.02770237
000240 0a 3a ca 3c 85 7a d7 be 6e 9e 00 bf 28 0e d5 bd
       0.024685878 -0.42085662 -0.50241745 -0.10403091
000250 f7 83 b5 3d c4 ac e1 3d 17 4b a0 bd 6d 74 45 bc
       0.08863061 0.110192806 -0.07826822 -0.012051684
000260 3c 60 3e be 75 57 6e 3e b8 27 b1 be 8e c6 b7 be
       -0.18591398 0.2327555 -0.34600616 -0.35893673
000270 6a f8 2f be 61 ca ea 3c 4f 66 2f bd 73 95 c6 bb
       -0.17184606 0.028660955 -0.04282218 -0.006060296
000280 13 7e d7 bd b7 46 4f 3e cf 29 ff bd 96 ea 23 be
       -0.105220936 0.2024182 -0.12459146 -0.16007456
000290 b6 de d8 bd 60 41 4a 3e ee ea 71 be d7 df 1d bd
       -0.10589354 0.19751501 -0.23624775 -0.03854355
0002a0 ea 3f 1c bc 10 db 06 3e c8 a9 35 3d 4f d7 a9 3d
       -0.009536723 0.13169503 0.04435137 0.0829302
0002b0 3f 6b 10 be 23 c1 2c 3d 89 d4 55 3d 6f bb 11 bf
       -0.14103411 0.042176377 0.052204642 -0.56926626
0002c0 c4 1f 6c be 32 64 d3 be f8 1b e6 bd ec 55 c8 3d
       -0.23058993 -0.4128738 -0.11235803 0.09782013
0002d0 a8 14 0c bd 5d 22 d9 3d bb 40 25 3d 40 39 a6 bd
       -0.034199387 0.106022574 0.040344935 -0.08116388
0002e0 1b b5 6c 3e 74 0f 40 3d 0b 59 8d bd 51 5e e9 bd
       0.23115961 0.046889737 -0.06901749 -0.113949426
0002f0 81 8b fa bd 50 09 67 3e 90 08 00 3d 1a be 0e 3e
       -0.122336395 0.22562146 0.031258166 0.13939705
000300 b3 1f 91 3c c4 f1 2a 39 9f 8b 0e bd e1 4c 8c be
       0.01771531 0.00016302528 -0.03480112 -0.27402404
000310 7b d9 81 bd 2f 46 dc 3d bb c2 24 bb fd 9e 38 3d
       -0.06340309 0.10755574 -0.0025140482 0.045073498
000320 f6 6f 3a 3c 86 92 71 3d 1c d5 ad 3e 0a 48 89 3e
       0.011379233 0.058977626 0.33951652 0.26812774
000330 2f 28 f6 3d d1 9a 08 be ca c4 7b be 8a 1e eb 3e
       0.12019383 -0.13340308 -0.24586788 0.45921737
000340 e0 77 76 bd 4b 40 68 3e 2d 3d 8c 3e a4 50 3f be
       -0.060172915 0.22680776 0.27390423 -0.18683106
000350 b5 8f 2b 3d ee 70 2f 3e 62 20 f6 bd ba 93 be 3b
       0.041885097 0.17132923 -0.12017895 0.00581595
000360 fc 9f 97 3e 95 4a dd 3b d4 24 ba be 58 62 6b be
       0.29614246 0.0067532756 -0.36356223 -0.22986734
000370 49 70 33 be c2 f2 80 3d 58 34 2b be bd 8f 21 3e
       -0.17523302 0.062963024 -0.16719186 0.15777488
000380 d0 00 be 3e 42 2b 29 be 55 af e1 3d bb c6 a5 be
       0.37109995 -0.16520408 0.1101977 -0.32378182
000390 77 cd 0c be cc 15 04 3e c0 0d 56 be 07 15 2d 3d
       -0.13750254 0.1289894 -0.20903683 0.04225638
0003a0 5f d2 8f 3d 08 f8 17 3e c1 8a 82 be e9 2c 8c 3d
       0.07022547 0.1484071 -0.25496486 0.068445034
0003b0 d9 c5 34 3d 28 b1 d3 bd bf c3 4c bd 70 07 2f 3e
       0.044133995 -0.10336524 -0.049991366 0.17092681
0003c0 19 d8 90 bb c5 d2 2a be cc 17 e3 bd de 37 52 3e
       -0.004420292 -0.16681965 -0.11088523 0.20529124
0003d0 2d 03 8c bd 8e 88 3c be 97 bf 04 3e 9e 5b aa 3d
       -0.06836543 -0.18411466 0.1296371 0.08318256
0003e0 63 ef 5c 3d db f5 80 3e 1c 98 c6 be ba 72 af be
       0.053939234 0.25187573 -0.38787925 -0.34267217
0003f0 b6 2e 0c 3e 70 7a 7f 3d e0 fa 2c be 09 01 f2 3d
       0.13689694 0.062372625 -0.16892576 0.11816604

model/dense_6/MatMul f4 [32, 64]
000000 12 2f 99 be 83 f6 90 3e 41 0c 97 3d a7 a2 ec bd
       -0.29918724 0.28313074 0.07375384 -0.11554461
000010 80 0e 0b be 4b 12 94 3e 51 3b 1b bc c4 a9 7d bd
       -0.1357975 0.28920206 -0.009474591 -0.06192948
000020 35 a9 45 be de de 7e 3e 2f 6c 01 be 9c 21 c7 bd
       -0.19302829 0.24889705 -0.12638925 -0.09723207
000030 9c 6c 46 3e 8d 04 d0 3c 70 1f 01 be a4 41 03 be
       0.19377369 0.025392795 -0.12609649 -0.12818009
000040 c4 f3 57 bd 00 fc d8 bd 09 dc 3a 3e 60 a0 19 bd
       -0.052722707 -0.1059494 0.18247999 -0.03750646
000050 d6 46 1e 3e 4f 79 8a 3d 5d 9f 8a 3e b4 74 85 be
       0.1545671 0.06761419 0.2707471 -0.260656
000060 d8 c6 43 bc c3 26 3a bd ac 6a 0d 3e 31 0b 7d bc
       -0.0119492635 -0.045447122 0.13810223 -0.015444563
000070 23 55 7d be 6b fb 97 bd 33 67 e0 bd 36 f7 f9 3d
       -0.24739508 -0.07421001 -0.10957184 0.12205355
000080 68 eb ed bd 51 c5 22 3d 2f fb 05 be ea 52 58 3e
       -0.11617166 0.039738957 -0.130841 0.21125379
000090 b9 1b 83 3d 07 4a 9e 3e 98 a8 59 3e 52 d6 ce bd
       0.06401772 0.30915853 0.2125572 -0.10099472
0000a0 23 13 28 3e bb aa 14 be f1 4b 0b 3e 23 e1 9d be
       0.1641355 -0.14518254 0.13603188 -0.30835828
0000b0 7a 09 ec 3d cd e4 bd 3c d8 f0 0c 3f 41 6f 97 be
       0.11525245 0.02318039 0.55055 -0.29577067
0000c0 c9 d4 3b 3b 3c 2c a4 be df 0e c8 be ef a3 19 be
       0.0028660765 -0.32064998 -0.39073846 -0.15003942
0000d0 cc 5c 8f 3d 76 56 27 be 42 54 b4 bc cf 42 08 3e
       0.070001215 -0.16341576 -0.022012834 0.13306735
0000e0 fd e6 b3 be 56 19 51 3e 21 23 5f 3c 98 7c c5 bd
       -0.35137168 0.20419821 0.013619215 -0.09642905
0000f0 ab 23 04 be 9f 72 17 bd c9 78 3b be ca 49 5b 3c
       -0.12904231 -0.036974546 -0.18307795 0.013384292
000100 61 38 e5 bd d5 5a aa be a8 8f b9 3d 85 87 6f bd
       -0.11192394 -0.33272424 0.090606034 -0.05847885
000110 e8 3f a4 bd 78 67 d3 bd b3 a3 22 3e ec 7d 77 bc
       -0.08020002 -0.103224695 0.15882759 -0.015105706
000120 df f4 8a 3d 59 ff 11 be ee 06 cf 3c 3d 55 81 be
       0.06784987 -0.14257564 0.025271859 -0.25260344
000130 1e 4d cc bd 84 0c 60 3e 36 f4 63 3c ae 00 c7 3c
       -0.099756464 0.21879774 0.013913205 0.024292316
000140 33 82 9a 3a 0f c7 9a bd 30 dc 59 3c d2 57 e7 3d
       0.001178807 -0.07557499 0.013297126 0.11296047
000150 85 44 05 3e ce 44 62 3e 91 56 a5 be 9c e8 79 be
       0.1301442 0.2209656 -0.32292607 -0.2440514
000160 89 a0 e6 3d 40 51 62 be 1d e6 03 bc 20 04 39 3d
       0.112610884 -0.22101307 -0.008050469 0.04516995
000170 d7 64 19 3c fa fc 4b be 0b 1d 47 bc 1c 96 e4 3d
       0.009362421 -0.19920722 -0.0121529205 0.111614436
000180 6e c7 3e be d6 c3 88 3e f4 f5 a3 3c e8 9a d9 bd
       -0.18630764 0.2671191 0.02001474 -0.10625249
000190 00 49 15 be a9 91 f9 bc bb 7b 17 3d 70 8d d5 3c
       -0.14578629 -0.030464964 0.036983233 0.02606842
0001a0 c9 1f 22 be 07 24 20 3e c2 6f ea 3d a6 d4 23 3e
       -0.15832438 0.15638743 0.11447097 0.15999088
0001b0 34 d0 5c be 95 dd 3c 3d 15 4a 4e be 69 31 82 3e
       -0.21563798 0.046109755 -0.20145448 0.25428322
0001c0 ae 09 e2 3e 76 f6 d7 be c8 fc 5a bc 87 20 c5 bd
       0.4414801 -0.42180222 -0.013365932 -0.09625345
0001d0 20 0b 25 3e 14 a2 14 3c a0 62 35 bb 29 a3 0f 3d
       0.16117525 0.009071846 -0.0027677193 0.03506771
0001e0 2e 83 02 3e 12 b4 d2 3d fe 2c f3 3c 74 46 ed 3e
       0.12745354 0.10288252 0.02968454 0.46342814
0001f0 0f 25 7e bd 53 8d d0 bd ba 62 eb bd 94 9f be 3d
       -0.06204706 -0.101832055 -0.1149344 0.09307781
000200 c6 d2 13 3e 20 07 e9 37 bb fe 47 be 27 c3 ab be
       0.14435872 2.7779082e-05 -0.19530766 -0.33547327
000210 54 d1 8f bd 55 df 77 3d 8f b7 c6 bd 58 b9 0c bf
       -0.07022348 0.06051572 -0.0970298 -0.5497031
000220 ad 13 76 bd cd f1 18 bf 11 1d 54 3d 76 73 b1 bd
       -0.060077358 -0.5974396 0.051785532 -0.086646006
000230 06 00 f9 3c 81 74 14 3e 67 b0 81 be 62 91 66 be
       0.030395519 0.14497568 -0.25329897 -0.22516397
000240 a9 03 a4 bd 44 2b c5 bd a7 0e f7 3d 09 1b 79 3e
       -0.080085106 -0.09627393 0.120633416 0.2432672
000250 7c e8 cc 3c 60 39 f1 3c 17 35 d0 bd ac 1f 5b be
       0.025013201 0.029446304 -0.10166376 -0.213988
000260 32 e2 28 be fa 03 75 bd 7a f7 58 3e 1b d3 d4 3e
       -0.16492537 -0.059818245 0.21188155 0.4156731
000270 8b 46 ad 3c 25 40 22 be 93 ce 61 bd 13 4a ad bc
       0.021151802 -0.15844782 -0.055128645 -0.021153485
000280 ed 7e 66 3e 9a cf 41 3e 9a 1b 8f 3d e3 b0 4a 3e
       0.22509356 0.1892685 0.069876865 0.1979404
000290 b6 e5 58 3d 3c 1a 8f 3e 92 f5 d2 bd b1 a2 c3 be
       0.052953444 0.27949703 -0.10300745 -0.3821006
0002a0 b1 af 83 be eb b2 cf bc ab 40 40 be 0a 5a ac 3c
       -0.2571998 -0.02535387 -0.18774669 0.021039028
0002b0 49 b9 ad 3c 10 06 09 3e 6e 87 9d 3e e5 bc 33 3d
       0.021206515 0.13381219 0.30767387 0.043881316
0002c0 bc a5 58 3e eb 87 04 3e b1 d8 ef 3d 28 68 19 be
       0.21156973 0.12942474 0.117112525 -0.14981139
0002d0 8c 55 e3 3c 63 a7 bb 3d 4e 7b 5e be 78 31 dc 3c
       0.027750753 0.09162786 -0.21726725 0.026879057
0002e0 2f 7e bf bd 54 c6 0d 3e 01 d7 50 bd 33 a7 28 be
       -0.093502395 0.13845187 -0.050986294 -0.16470031
0002f0 c4 ff d7 bd dd 2b 26 be b1 89 87 bd 50 2e eb 3d
       -0.1054683 -0.1622767 -0.066180594 0.11483443
000300 58 38 5f be 40 87 16 bc 17 b6 ae 3d 48 9b 3f 3e
       -0.21798837 -0.00918752 0.08530825 0.18711579
000310 70 46 aa be 7f ff 81 be 94 0f d5 bd 42 5c b8 3c
       -0.33256865 -0.2539024 -0.10403362 0.02250493
000320 31 b6 2e 3e 13 d3 60 3e 2c 7e 17 be b0 00 d1 bd
       0.17061688 0.21955518 -0.14794225 -0.10205209
000330 fe d4 9f be 56 19 63 b9 0d 7e dc 3e e8 68 a3 bd
       -0.31217188 -0.00021657845 0.4306492 -0.07978994
000340 12 4e 4d 3d ce 30 0f be 0b 4e 09 bd cb 22 82 bd
       0.05012328 -0.13983461 -0.033521693 -0.063542925
000350 1e 4a b3 3e 33 40 9e bd 54 14 6a 3d b8 50 b1 3b
       0.35017484 -0.07727089 0.057148293 0.0054112338
000360 cd c9 41 3d af f6 35 3e 5d ac a2 bd ca 54 73 3c
       0.047311593 0.17769884 -0.07943032 0.014851758
000370 46 f0 db be 5a e9 1a be 74 b4 2f be df 98 e3 3c
       -0.42956752 -0.15128079 -0.17158681 0.027782856
000380 b8 3e d5 3c 74 94 8e bd 35 24 36 be 72 5a 3a 3e
       0.026030883 -0.06961909 -0.1778725 0.18198565
000390 49 f9 b4 3d 54 25 d1 bc bc 65 73 3e af 1b c9 bb
       0.0883661 -0.025530495 0.23769277 -0.0061373333
0003a0 9a 06 ad 3c 43 f9 2b 3e 5d 53 8f 3e 31 e2 91 bd
       0.021121312 0.16794305 0.2799329 -0.07123221
0003b0 e7 ab 01 3f dd c3 97 3d a8 70 3c be 36 d7 46 3c
       0.5065293 0.07410405 -0.1840235 0.012136271
0003c0 bc 6f d4 3d 3f 0a 49 3e b3 36 88 be b8 85 e8 3d
       0.10372874 0.19632815 -0.26604232 0.1135363
0003d0 e7 d3 c9 bd 50 d0 e3 3e 68 3f 21 bd 43 cc 41 bd
       -0.0985487 0.44494867 -0.03936711 -0.04731394
0003e0 97 19 84 ba 4d 15 7f 3e 97 af 82 bd 50 7b 36 bd
       -0.0010078427 0.2491047 -0.06381147 -0.044551194
0003f0 de a9 35 be d6 a6 8b be 49 61 60 be d5 4b c1 3d
       -0.1774058 -0.27275723 -0.21912111 0.09438292
